models/checkpoints/autoencoder_best.pth (torch, 785670 bytes, 73 tensors)

encoder.0.weight f4 [32, 1, 3]
000000 ce ca b1 be 64 98 06 3e c0 60 0f bf 46 f2 0f 3f
       -0.3472504 0.1314407 -0.56007004 0.56229055
000010 a0 e9 bd 3e 30 f0 02 3f 4e 0a 07 3f d8 01 e2 bd
       0.37092304 0.5114775 0.527501 -0.11035508
000020 86 6b 2d 3e a6 4a e4 be d0 6b 77 bd f2 2c 12 bf
       0.16935548 -0.44588202 -0.060405552 -0.5709983
000030 69 30 74 be 4b 9a b2 be a6 f8 94 be b8 fb 7a 3d
       -0.23846592 -0.3488334 -0.29095954 0.061275214
000040 d0 c6 27 3e c2 47 a0 3e 11 44 d4 3e 37 60 56 bd
       0.16384435 0.31304747 0.4145818 -0.05233785
000050 d3 86 7a 3e fb 26 0e 3e b7 cf 4a be fd db 8f be
       0.24465494 0.13882057 -0.198058 -0.28097525
000060 f9 53 0b 3f a5 f0 4a be cf 66 73 be 78 60 73 3e
       0.5442501 -0.19818361 -0.23769687 0.23767269
000070 50 f4 1c 3d 14 31 b5 bd ea 9c ce be 08 b4 6d 3e
       0.038318932 -0.088472515 -0.4035409 0.23213208
000080 a4 78 01 bf b8 b1 07 3e 73 7a c7 be 50 f7 31 bd
       -0.5057471 0.13251388 -0.3896061 -0.043448746
000090 e7 ec db 3e f7 91 c0 be 68 03 0c 3f 24 e1 14 bf
       0.4295418 -0.37611362 0.546927 -0.5815604
0000a0 dc 57 86 bc 42 59 ca bc 7e d6 04 bf ca 4b b3 3e
       -0.016399316 -0.024700765 -0.5188979 0.3501876
0000b0 8a 07 17 3f 34 bb 48 be 4c 98 91 be fb 17 e8 be
       0.5899588 -0.19602662 -0.28436506 -0.45330796
0000c0 dc 82 e4 be 72 52 26 be c0 a7 c4 bc ed 3e fc 3e
       -0.44631088 -0.16242388 -0.02400577 0.4926676
0000d0 21 0f e9 3c 44 db cd be b8 3f 86 3d 68 d5 81 3e
       0.028449597 -0.4020635 0.06555122 0.2535813
0000e0 f5 60 09 bf e0 dc b4 3e 38 21 9e be 95 50 05 bf
       -0.5366357 0.35324764 -0.3088472 -0.52076083
0000f0 09 d6 73 be 13 17 c3 3e 0d 79 85 3e 47 97 e6 be
       -0.23812117 0.38103542 0.26068917 -0.4503729
000100 58 b4 85 3d 36 5e f4 be 8c d2 f0 be 40 24 8a 3d
       0.065285385 -0.47728127 -0.47035635 0.067451954
000110 af de fa be 83 09 21 be d6 2b ef bd 27 49 96 3e
       -0.4899802 -0.15726285 -0.11678283 0.29352686
000120 84 1c 6b 3e 03 a9 e3 be 53 06 63 3e be b2 14 3e
       0.22960097 -0.44464883 0.22170381 0.1452131
000130 f6 e6 dc bd 05 7e 98 3e 0c 5a 0b 3e a1 49 fa be
       -0.1078624 0.29783645 0.13608569 -0.488843
000140 2d 39 a4 be 50 46 9c 3e db 5b 62 be c3 0c c6 be
       -0.32074872 0.30522394 -0.22105353 -0.3868161
000150 38 80 99 be 88 65 50 3e d1 e9 11 3f b4 8d 7b be
       -0.29980636 0.20351231 0.569974 -0.24565774
000160 cc 6d db bd 5c e4 b0 bd cd 4f 98 3e e0 9b 9e 3e
       -0.107143015 -0.08637306 0.29748383 0.30978298
000170 db ff 4e be 88 b7 70 be 50 57 80 3d b8 5b de 3e
       -0.20214789 -0.23507512 0.062666535 0.4342935

encoder.0.bias f4 [32]
000000 cd 74 84 be 5f f8 09 bf 6a ca 9c bd f5 ba 8e be
       -0.25870362 -0.5389461 -0.07655795 -0.27877012
000010 c6 f2 be 3e 8c 2e 3c be 5e a2 94 3e 66 92 22 3e
       0.37294596 -0.18377131 0.29030126 0.15876159
000020 a5 45 ea 3c 84 7a 04 bf 5e 09 67 be 58 f7 92 be
       0.028597662 -0.51749444 -0.22562167 -0.28704333
000030 bb 30 f2 3e 4a 37 8a 3c 1d 63 a1 be 4a fa 24 be
       0.47302803 0.016872067 -0.3152093 -0.16111103
000040 aa 78 c8 be cb d1 3c bd a2 b4 e7 be de 30 b5 be
       -0.3915456 -0.04609851 -0.45255 -0.35388845
000050 34 59 89 bd be 91 f7 be 37 91 eb 3e 21 d1 e4 3e
       -0.06706467 -0.4835338 0.46009228 0.44690803
000060 11 e9 cc bc 0a a7 80 3e a3 7d a2 be 9b 38 04 3f
       -0.025013478 0.2512744 -0.31736478 0.51648873
000070 5e a3 66 bd 61 65 b1 be 63 02 4f bc 3b be 87 be
       -0.056308143 -0.34647658 -0.012634846 -0.26512322

encoder.2.weight f4 [32]
000000 00 00 80 3f ba 37 81 3f 04 d9 7e 3f 00 00 80 3f
       1.0 1.0095131 0.9954989 1.0
000010 06 75 83 3f b8 c8 80 3f 19 2a 80 3f ef c3 80 3f
       1.0270088 1.0061255 1.0012847 1.0059794
000020 c3 15 79 3f 00 00 80 3f 00 00 80 3f 00 00 80 3f
       0.9729883 1.0 1.0 1.0
000030 4c 85 81 3f 1f 1c 82 3f be 72 78 3f 00 00 80 3f
       1.0118804 1.0164832 0.9705008 1.0
000040 00 00 80 3f 3f 38 7e 3f 00 00 80 3f 00 00 80 3f
       1.0 0.99304575 1.0 1.0
000050 e9 2c 82 3f 00 00 80 3f 10 97 7a 3f b5 30 81 3f
       1.0169955 1.0 0.97886753 1.0092989
000060 16 8c 7a 3f 6b 4e 81 3f 00 00 80 3f e2 08 81 3f
       0.97870004 1.0102056 1.0 1.0080836
000070 69 4f 80 3f 00 00 80 3f 73 06 85 3f 9f 96 73 3f
       1.0024234 1.0 1.0392593 0.95151705

encoder.2.bias f4 [32]
000000 46 31 67 3d 1a f4 dd 3c 93 5b 90 bb d4 0f ff bc
       0.056443475 0.027093936 -0.0044054477 -0.031135477
000010 f9 34 56 bc 7f 3c d9 3b 76 74 af bb 05 d1 77 3c
       -0.013074153 0.006629526 -0.0053544594 0.015125518
000020 f1 c1 bb 39 04 22 07 3d 51 c8 5f 3c b9 48 1e bd
       0.00035811917 0.032991424 0.013658599 -0.038643572
000030 a0 a0 0e bd e4 47 6b 3c fd df ce 3b 3c 6b 9c 3d
       -0.034821153 0.014360402 0.0063133226 0.07637641
000040 0f 6b 1a 3c 45 45 33 bb fd 25 62 bd 4f e5 58 bd
       0.009424939 -0.002735452 -0.05521201 -0.05295306
000050 c8 7f 1e 3c fc 38 0b 3d cf 63 98 bc 04 f2 ab bc
       0.00967402 0.03398989 -0.01860228 -0.020989425
000060 9d 0e a8 3c 05 2f 32 bb 77 91 80 bd 68 7d 69 bc
       0.02051478 -0.002718867 -0.06277745 -0.014251091
000070 5a 92 0e bd a8 89 a2 bc 1f 14 72 3c 0e 11 45 3c
       -0.03480754 -0.01984103 0.014775305 0.012027992

encoder.2.running_mean f4 [32]
000000 00 00 00 00 d2 17 18 3e eb b7 34 3e 00 00 00 00
       0.0 0.14852837 0.17648284 0.0
000010 82 f4 92 3d d1 15 8b 3d 76 6e 0b 3f cb 15 4c 3d
       0.071755424 0.067912705 0.54465425 0.04982547
000020 4d 78 d3 3d 00 00 00 00 00 00 00 00 00 00 00 00
       0.1032568 0.0 0.0 0.0
000030 99 9c 39 3f 1c d9 88 3a d2 f0 24 3d 00 00 00 00
       0.72504574 0.001044068 0.040268727 0.0
000040 00 00 00 00 86 3f 81 3d 00 00 00 00 00 00 00 00
       0.0 0.06310944 0.0 0.0
000050 74 8e f1 3d 00 00 00 00 6c e0 0b 3e 09 19 e9 3e
       0.11794749 0.0 0.13659829 0.45526913
000060 d9 1c 28 3d f8 d9 c8 3e 00 00 00 00 24 56 c6 3e
       0.041043136 0.39228797 0.0 0.38737595
000070 e9 ba 24 3e 00 00 00 00 37 e7 22 3e da a7 1a 3c
       0.16086926 0.0 0.15908514 0.009439433

encoder.2.running_var f4 [32]
000000 3e 96 ad 33 12 4b 11 3d 07 9d b1 3c 3e 96 ad 33
       8.083269e-08 0.035471983 0.021681322 8.083269e-08
000010 0d c7 26 3c eb e2 dd 3b 6b de a7 3c 40 38 65 3b
       0.010179293 0.0067714355 0.0204918 0.0034976155
000020 43 51 63 3c 3e 96 ad 33 3e 96 ad 33 3e 96 ad 33
       0.013874355 8.083269e-08 8.083269e-08 8.083269e-08
000030 1c 69 32 3d 75 84 89 37 fc 5a 0f 3c 3e 96 ad 33
       0.04355727 1.6393353e-05 0.00874972 8.083269e-08
000040 3e 96 ad 33 63 ac 1e 3c 3e 96 ad 33 3e 96 ad 33
       8.083269e-08 0.009684655 8.083269e-08 8.083269e-08
000050 6c 85 68 3c 3e 96 ad 33 b1 ca 9f 3c e9 f2 fb 3b
       0.0141919665 8.083269e-08 0.01950583 0.0076888693
000060 3a b9 aa 3b 2e 54 17 3c 3e 96 ad 33 1d 63 a2 3c
       0.005210069 0.009236379 8.083269e-08 0.019822652
000070 7f ec c9 3c 3e 96 ad 33 d4 e5 73 3c 02 de 65 3a
       0.024648903 8.083269e-08 0.014886338 0.00087687385

encoder.3.weight f4 [64, 32, 3]
000000 74 46 3d 3e 31 4b 56 3d 7e 90 42 3e 43 a3 7c 3d
       0.18483907 0.052317802 0.19000432 0.061679136
000010 04 fc e2 3d ff 82 3a 3d 59 4e ac bd ef 06 cc 3c
       0.110832244 0.045535084 -0.08413381 0.02490565
000020 e9 91 a4 bc d0 ef 22 be 01 ee 2c be 92 19 a4 bd
       -0.020089107 -0.15911794 -0.16887666 -0.0801269
000030 f6 47 fe bb ea 69 2f 3d b7 31 ac 3d b3 91 a7 3d
       -0.0077600433 0.042825617 0.0840792 0.08182087
000040 9f 9a aa 3c 41 d4 87 bd 22 ff 2a bd 30 a0 91 bd
       0.020825682 -0.06632281 -0.04174722 -0.071106315
000050 23 fd 6d 3c bb 08 46 3d ea 45 f8 bc 82 5c 49 3d
       0.0145256845 0.04834817 -0.030306775 0.049160488
000060 5c d5 8c 3d af 7c 0f 3d 3d e5 af bd 59 1f eb 3c
       0.068766326 0.035031017 -0.085886456 0.028701471
000070 34 be b2 3d 34 b7 b8 3d c0 c8 91 3c ec 03 8a bc
       0.087276846 0.09019318 0.01779592 -0.016847573
000080 5c 14 06 bd 48 a8 99 bc 54 25 86 3a 0a c2 3e be
       -0.03273426 -0.018757 0.0010234513 -0.18628708
000090 01 96 9b bd 9e db f1 bd 92 a4 bd 3d 9e e0 6f 3d
       -0.0759697 -0.11809467 0.09259905 0.05856382
0000a0 06 92 74 3d 41 da 16 bd 06 24 84 bb 10 31 f0 3a
       0.05970957 -0.036829237 -0.0040326146 0.0018325169
0000b0 c6 56 9d bd 30 36 50 3e d2 d8 75 3c 14 f7 c1 3d
       -0.07682566 0.20333171 0.015005307 0.094709545
0000c0 e2 61 88 bc 82 7d 43 bd 0e 5f 95 3d d6 31 73 3d
       -0.016648237 -0.047727115 0.07293521 0.0593737
0000d0 0b ba d1 3c 32 c7 a0 3c 39 c5 bc bd ae 54 7b bd
       0.025601408 0.019626234 -0.09217305 -0.061360054
0000e0 aa 0d f1 bc 19 34 19 be 7e cc 11 be a6 01 50 bd
       -0.02942546 -0.1496128 -0.14238164 -0.050782822
0000f0 27 df 01 bc f3 51 cf 3d 49 63 d8 bc ac 9b 2d 3b
       -0.007926739 0.101230524 -0.02641453 0.0026490493
000100 65 26 8d 3d 3c 98 09 3e f5 81 de bc 49 26 aa bd
       0.06892089 0.13436979 -0.027161578 -0.083080836
000110 3c af 75 3d 54 c2 99 3d a0 de 95 bd ea 5e 66 3d
       0.05998157 0.07507768 -0.07317853 0.05624286
000120 16 0c a2 3d b3 2e 50 3d 05 da 58 bb 66 25 84 bd
       0.079124615 0.050825786 -0.0033088934 -0.06452446
000130 bf 25 fb 3c fa 91 ce 3d ea 93 20 be 83 d7 c4 bd
       0.030657647 0.100864366 -0.15681425 -0.09611418
000140 37 4d ac bd 2a bb b1 3d f0 81 a6 bd 75 ae 8b 3d
       -0.08413165 0.08678277 -0.08130252 0.068203844
000150 91 86 bc bc ef c3 83 bd 49 0c 0c bd 1d 9d f4 bd
       -0.023013385 -0.06433856 -0.034191404 -0.119440295
000160 c7 8b a1 bd 5c 9d 09 bd 87 6d 8a bd 68 f8 98 3d
       -0.078879885 -0.033597335 -0.06759172 0.07469255
000170 4b 48 36 3d 76 48 63 3d 70 a9 dd bb be dc 87 bd
       0.044502538 0.055489026 -0.0067645833 -0.066339
000180 2f 09 be 3d 26 74 a6 3d 7a d0 c8 3d 36 e0 c2 bd
       0.092790954 0.08127622 0.09805389 -0.09515421
000190 86 9c 2e bd 8f 9e 32 3d 72 fd fa 3c 5e 15 02 3d
       -0.04262974 0.043608245 0.03063843 0.03175866
0001a0 fd 78 9a 3d cd 5b 1d 3d a4 7c 30 3d 9d c1 90 bb
       0.07542608 0.038417626 0.043087617 -0.0044176118
0001b0 a5 3a 94 3d cd 46 39 bd 8e 5b af bd 56 67 ce 3d
       0.07237748 -0.045233537 -0.085623845 0.100783035
0001c0 55 f4 80 3d 20 c6 ab bc 38 c3 8b bd 34 ed 45 3c
       0.06296603 -0.020968497 -0.068243444 0.012080479
0001d0 65 1d c8 3d a8 db bc bd 2e 36 e9 ba 28 f6 29 bd
       0.097712316 -0.092215836 -0.0017792636 -0.04149452
0001e0 c2 ca 2a bd 79 34 87 bd 2e bc 8d 3d a7 d3 2d 3c
       -0.04169727 -0.06601805 0.06920658 0.010609544
0001f0 75 6b f2 3c 7c 2e 31 3d e1 e3 47 3d 7e b5 5a bc
       0.029592255 0.04325722 0.048801307 -0.013348935
000200 d6 d5 27 3d 56 a6 00 3d de 59 4b bd de 3f b9 3c
       0.040975414 0.03140863 -0.04964625 0.022613462
000210 df 2a b3 3d 7f f5 04 3d f2 19 2d 3d 33 a2 b0 3c
       0.087484114 0.032460686 0.04226107 0.021561718
000220 7e 8d e2 3c 93 0c 47 bd b4 ab d1 3d 79 e9 9f bd
       0.02765536 -0.048595976 0.10237828 -0.07808203
000230 7e 39 a7 3d fa fa d8 3d 53 de 79 bd c7 cc 83 3d
       0.08165263 0.10594745 -0.06100304 0.064355426
000240 e1 7f 8f 3c 4a a0 86 bc b1 a8 62 3d 1a fa b1 3c
       0.017517032 -0.016433854 0.055336658 0.021725703
000250 2e 8b b5 bd ab 45 b6 3d 43 b5 98 3d 52 46 d4 bc
       -0.08864437 0.08900007 0.07456448 -0.025912438
000260 99 55 be bd ff 22 d2 bc bf e9 b5 3b a9 ce 68 bd
       -0.0929367 -0.025651453 0.0055515463 -0.05683771
000270 5a cc 2a bd 23 38 4f bd f3 c0 89 3c 98 08 66 3d
       -0.04169879 -0.050590646 0.016815638 0.05616054
000280 c5 51 71 3c bb 33 b1 3d 33 19 33 3c f2 90 9b bd
       0.014728968 0.08652445 0.010931301 -0.075960055
000290 0f 3b 94 3d 1c 96 6e bd 92 f1 71 3b 53 3d 9b bd
       0.07237827 -0.058248624 0.0036917669 -0.07580056
0002a0 19 11 7c bd 54 16 d0 3d b6 b8 c0 bb 85 f2 f6 3b
       -0.061539743 0.10160509 -0.0058813943 0.007536235
0002b0 fc dc 2a bd c2 76 40 bd d6 28 f0 bc b3 ad 09 3d
       -0.041714653 -0.046988256 -0.029316347 0.033612918
0002c0 64 04 05 3d 19 86 21 3d 55 dc 8c 3d af 38 59 3d
       0.03247489 0.039434526 0.068779625 0.053032573
0002d0 98 14 3d bd b0 4e 9a 3d df 50 bc 3c 78 e8 09 bc
       -0.046162218 0.0753454 0.022987781 -0.008417241
0002e0 cc 6a 93 3d 67 f9 fb bc 6e 2e e1 bc c2 3f af bc
       0.07198104 -0.030758573 -0.02748796 -0.021392707
0002f0 87 ee a4 bd eb 5f 0c 3d e1 0a 0f 3d d8 3d 65 3d
       -0.08053308 0.034271162 0.034922484 0.055967182
000300 aa 5b f7 3d 2e c1 a6 3d 9b 0f 00 3d be 12 49 bd
       0.120780304 0.08142315 0.031264883 -0.04909014
000310 10 88 ba 3d 06 1c e6 3c 72 56 a4 3b 4e 4b 80 3d
       0.09107983 0.028089534 0.005015188 0.06264363
000320 af 95 8e bd ed f2 46 bd 8f 64 30 3c 44 95 e5 bd
       -0.06962144 -0.048571516 0.010766163 -0.11210111
000330 3d be 7a 3b fa 75 84 bd a2 90 9f bd f7 3d 29 3c
       0.0038260364 -0.06467815 -0.077912584 0.010329715
000340 78 c9 ad 3d 7f a9 c8 bd 71 2d a6 3d e3 85 28 3d
       0.08485693 -0.09797954 0.08114136 0.04114331
000350 fb 66 b0 3c 29 26 cd 3d 18 45 90 3d fa a1 3f bd
       0.02153348 0.10017044 0.070444286 -0.046785332
000360 76 1b 99 bc 5e b5 18 3d 8b 17 91 3d ea 7e aa 3d
       -0.018689852 0.03728234 0.070845686 0.08324988
000370 b9 ca 2a bd 01 3d 00 3e 53 f3 33 3d 72 a4 2d 3d
       -0.041697238 0.12523271 0.043933224 0.042393155
000380 31 7c f4 bc 03 eb d8 bc ff 2d d4 bd 05 1c a9 bd
       -0.029844375 -0.02647925 -0.103603356 -0.082572974
000390 9b 9d 7c bd b9 5f 95 3d 73 16 cd 3d 7e a7 a6 3d
       -0.06167374 0.07293648 0.100140475 0.08137415
0003a0 4c 32 96 bd ee ff e0 bd 4e 54 fd bc ff b7 b2 bd
       -0.07333812 -0.10986315 -0.030923989 -0.08726501
0003b0 48 ce 2c bd 26 5d 01 3e c5 00 99 3d 64 f6 d1 3d
       -0.042188913 0.1263319 0.0747085 0.102520734
0003c0 09 b1 a6 bd 81 e9 d1 3d 4f ca af bd 56 d1 42 3d
       -0.081392355 0.102496155 -0.08583509 0.04756292
0003d0 88 d2 ca bc 60 48 87 3d 5f 0a c4 3c a5 77 f3 bd
       -0.024758592 0.06605601 0.023930727 -0.11888055
0003e0 00 b9 b1 bd f9 7c 2e bc 38 f3 82 bc f3 2a 05 be
       -0.08677864 -0.010649913 -0.015985116 -0.13004665
0003f0 4c 77 20 3d 4f 08 89 3d db f9 91 bd 36 40 e9 3d
       0.03917627 0.06691038 -0.07127734 0.113892004

encoder.3.bias f4 [64]
000000 a8 86 12 3d 19 aa 59 bd a1 b3 bc bc f4 58 96 bd
       0.03577295 -0.053140733 -0.023034872 -0.07341185
000010 0a 1b 4a bc 83 18 ce bc 75 2e 01 bb 2f 91 a1 3d
       -0.012335548 -0.025158172 -0.0019711528 0.0788902
000020 f7 aa c1 bc 22 88 a3 3b 66 f4 c3 bc 67 10 c9 bb
       -0.023641093 0.0049905935 -0.02392025 -0.0061359885
000030 5e cb 38 3d 87 d8 2c bd bd 71 06 bd 11 f4 23 3d
       0.04511582 -0.042198684 -0.032823313 0.04002768
000040 29 e1 47 bd 31 c6 7d 3d ac 67 a8 3d 9c ca 11 bd
       -0.048798714 0.06195659 0.08222899 -0.035593614
000050 ec eb d8 3d d2 81 c2 3d 06 f9 30 3d 70 21 88 3d
       0.105918735 0.094974175 0.043206237 0.06647003
000060 9a d3 77 3d d8 99 fb 3c f3 d4 05 3c 20 1a 30 3d
       0.060504533 0.030713007 0.008168447 0.042993665
000070 ae 18 57 bd 43 37 97 3d 58 3a a8 bc aa de 66 3d
       -0.05251377 0.07383587 -0.020535633 0.056364693
000080 d0 8c c4 bb 06 62 fd 3c 61 84 ae 3b 93 30 a8 3c
       -0.0059982315 0.03093053 0.0053258394 0.020530974
000090 29 dc ee bc 13 eb 6a 3d 90 29 0e 3d bc 38 38 3d
       -0.029157715 0.05735309 0.034707606 0.04497598
0000a0 86 a4 aa bd 83 31 a0 3d db 37 37 3d da 31 a1 3d
       -0.083321616 0.078219436 0.044731002 0.078708366
0000b0 c6 29 a2 bc 3d 72 2d 3d 9f 8f 7a bd a8 63 7d 3c
       -0.01979531 0.042345274 -0.061172124 0.015465654
0000c0 29 8b 37 bd a4 1c b2 3d 0c bc d8 3d 7e ef 9d bd
       -0.044810448 0.08696869 0.10582742 -0.07711695
0000d0 d6 3d c7 3c 73 62 f4 3a 9c da d4 3a b1 25 57 bd
       0.024321478 0.0018645063 0.0016239467 -0.05252618
0000e0 63 e8 b4 3d 5a 2d 32 3d 00 e1 04 3d 99 01 30 3d
       0.08833387 0.043500282 0.03244114 0.042970274
0000f0 64 0a b1 3c 2e b7 8e bd 3d cd 8d 3d 2e fb 1c 3d
       0.0216114 -0.069685325 0.06923912 0.03832548

encoder.5.weight f4 [64]
000000 7a 96 82 3f 0f 00 80 3f 41 8a 7f 3f 19 07 7b 3f
       1.0202172 1.0000018 0.99820334 0.98057705
000010 f1 7f 81 3f b7 7a 7f 3f 46 00 81 3f e6 6a 81 3f
       1.011717 0.99796623 1.0078208 1.0110748
000020 b6 6f 79 3f af 15 81 3f d0 62 7a 3f ad 3b 81 3f
       0.9743608 1.0084742 0.97807026 1.0096337
000030 c8 e2 7b 3f 76 69 80 3f 88 96 7a 3f 41 1e 80 3f
       0.98392916 1.0032184 0.9788594 1.0009233
000040 dd aa 81 3f a1 ae 7d 3f 43 81 7d 3f 0e b7 82 3f
       1.0130268 0.9909459 0.9902536 1.0212114
000050 9d c0 81 3f 25 f1 7c 3f f4 61 80 3f a6 05 80 3f
       1.0136906 0.9880546 1.0029893 1.0001724
000060 89 d1 81 3f ed 91 80 3f 32 c7 7f 3f 5c bf 7e 3f
       1.014207 1.0044533 0.9991332 0.9951074
000070 c7 f9 7c 3f 06 6a 78 3f 40 23 80 3f 82 8e 7a 3f
       0.9881863 0.9703678 1.0010757 0.978737
000080 ae 5f 7b 3f ab 05 82 3f 8c 6c 7c 3f 20 0f 80 3f
       0.9819287 1.015798 0.9860313 1.0004616
000090 aa e7 82 3f 06 c8 7a 3f e2 be 7b 3f 9b 0e 81 3f
       1.0226948 0.9796146 0.9833814 1.0082582
0000a0 62 32 7d 3f e4 a1 7f 3f 58 2f 7a 3f 95 3e 81 3f
       0.98905003 0.998564 0.9772849 1.0097224
0000b0 b5 0d 7d 3f d7 ad 80 3f ba fd 7b 3f dc 37 80 3f
       0.9884904 1.0053052 0.9843403 1.0017047
0000c0 57 23 82 3f fe 16 80 3f 78 9b 7f 3f d5 b0 7e 3f
       1.0167035 1.0007017 0.998466 0.99488574
0000d0 5c 69 7c 3f ad 8e 81 3f 4c 15 81 3f 50 d0 80 3f
       0.98598266 1.0121666 1.0084624 1.0063572
0000e0 c8 67 81 3f 8a 41 80 3f c1 c9 81 3f ff 70 7c 3f
       1.0109797 1.0020001 1.0139695 0.9860992
0000f0 8c a6 80 3f 56 c3 7e 3f da 52 83 3f c9 00 7d 3f
       1.0050826 0.9951681 1.0259659 0.98829323

encoder.5.bias f4 [64]
000000 f2 86 39 bd e7 58 13 bd c3 ee 40 bc 4b 7e 00 bd
       -0.04529471 -0.035973456 -0.011775675 -0.031370442
000010 1f dc d5 3b 10 56 02 3d 06 30 db bb 03 bd 0a 3b
       0.0065264846 0.031820357 -0.0066890744 0.0021169789
000020 2d dc 3a bc e1 47 2c 3c f1 98 b4 bc 0b c3 9e 3b
       -0.011405033 0.010515184 -0.022045584 0.0048450283
000030 92 fd 72 bd ea 55 91 3c a3 47 c4 bc 4d 2c de 3b
       -0.059323855 0.017741162 -0.02395994 0.0067801834
000040 2f 30 af bc 87 a3 0c bd 54 c3 1d bd 6d 0f dc bb
       -0.02138528 -0.03433564 -0.038516358 -0.006715706
000050 ac 6e 2a bb f4 ea 24 39 92 e1 9d bc c3 75 22 3d
       -0.0026005907 0.00015727786 -0.0192726 0.039663088
000060 9c 3c 30 3c 8d 16 9d 3b 9e d4 f1 3b 94 c8 05 3c
       0.010756638 0.004793948 0.0073800823 0.008165497
000070 30 5e 12 3c ba e0 27 3c 7c 0e d2 bc 97 d0 c3 bb
       0.008933589 0.01024645 -0.025641672 -0.0059757936
000080 5d 19 9c bc 6a c6 3b bc 56 82 a9 3c 4e 96 03 bc
       -0.019055063 -0.01146088 0.020692032 -0.008031441
000090 44 81 74 3c 64 54 9a bc 8c 1d 88 bc b9 12 76 3b
       0.014923397 -0.018839069 -0.016615652 0.003754778
0000a0 7c 43 bf 3c a4 be 01 bd 8f 00 93 bc ab 2f 4d 3c
       0.023347609 -0.03167595 -0.017944602 0.012523572
0000b0 00 5a 92 3b 1e 68 b2 bc 53 a1 58 3b 70 bb 50 bc
       0.0044662952 -0.021778163 0.003305514 -0.012740001
0000c0 2f d6 ba bb ed 0e 0e bc 0a e8 a5 3c 40 44 a3 bc
       -0.005701802 -0.008670551 0.020252246 -0.019930005
0000d0 a5 54 86 bc 4f 90 8b 3b 50 5c e2 38 78 72 05 bc
       -0.016397784 0.0042591463 0.00010793714 -0.008144967
0000e0 fb 2e 81 bc 8b a2 2e 3d 65 aa 6e bb 2b 00 00 3b
       -0.015769472 0.04263548 -0.003641748 0.001953135
0000f0 67 89 4d ba 09 d8 6d bc da cb 04 bc d1 6c 10 bd
       -0.0007840604 -0.014516839 -0.008105243 -0.035260025

encoder.5.running_mean f4 [64]
000000 d1 d6 79 3e f6 5c 23 3e d8 f8 a3 3e 34 dd 6c 3e
       0.24398352 0.1595343 0.3202579 0.23131257
000010 ef 36 37 3e aa a6 71 3e e5 2f 05 3e 99 4d 8d 3e
       0.17892049 0.23598734 0.13006552 0.27598265
000020 6b 61 66 3e 16 bb 71 3e 06 e0 68 3e c9 62 65 3e
       0.224981 0.23606524 0.22741708 0.22400965
000030 6e 96 77 3e 9f c4 69 3e 3f 64 3e 3e e0 a4 4d 3e
       0.24178478 0.22828911 0.18592928 0.20082426
000040 95 73 85 3e de 7e 8d 3e df c3 6f 3e 54 10 5d 3e
       0.26064745 0.27635854 0.23414563 0.2158826
000050 5b 45 95 3e e2 1a 60 3e 9f 3e 22 3e 12 94 57 3e
       0.29154477 0.21885255 0.158442 0.21052578
000060 f3 84 70 3e f0 88 4f 3e dd fa 49 3e 34 ea 75 3e
       0.23488216 0.20267081 0.19724603 0.24015123
000070 8e 81 80 3e f2 36 7d 3e 99 a4 95 3e ee 17 7e 3e
       0.25098842 0.24727991 0.2922714 0.24813816
000080 d9 e5 86 3e b2 49 4f 3e 32 35 17 3e 88 a7 3c 3e
       0.26347235 0.20242956 0.14766386 0.18423283
000090 4f 76 56 3e 5a fc b1 3e 01 60 71 3e ba 36 a1 3e
       0.20943569 0.3476284 0.23571779 0.31487066
0000a0 af ab 38 3e c6 7c 60 3e a7 b6 4c 3e a6 c1 68 3e
       0.18034242 0.21922597 0.19991551 0.22730121
0000b0 24 75 73 3e ae d4 5a 3e 48 7b 29 3e 81 6f 81 3e
       0.23775154 0.21370193 0.16550934 0.25280383
0000c0 12 09 41 3e 27 64 74 3e 41 9c 90 3e 4f f3 3a 3e
       0.18851116 0.2386633 0.28244212 0.18256877
0000d0 97 84 1f 3e b2 7c 35 3e 0c 8a 64 3e fb 0a 95 3e
       0.15577923 0.17723349 0.22318286 0.2910994
0000e0 95 7b 7a 3e 8f 8c 9c 3e 22 0a 71 3e e8 ea 9b 3e
       0.24461205 0.30575988 0.23539022 0.30452657
0000f0 92 02 2c 3e aa c7 38 3e e2 8e 57 3e 6a 07 72 3e
       0.16797855 0.18044916 0.21050599 0.2363564

encoder.5.running_var f4 [64]
000000 24 ec a5 3d a2 c4 9f 3d bf 6a 72 3e 85 58 02 3e
       0.08101681 0.078011766 0.23673533 0.1272908
000010 57 e3 38 3e d4 ab a1 3d 16 cd 88 3d 0b d7 24 3e
       0.18055473 0.07894102 0.06679742 0.16097657
000020 84 5d e7 3d f3 40 b9 3d 8e 62 fc 3d cd 61 e9 3d
       0.112971336 0.09045591 0.12323485 0.11395607
000030 99 ff d6 3d 00 9d f0 3d c8 93 ae 3d 96 c2 95 3d
       0.1049797 0.117486954 0.08524281 0.07312505
000040 af f8 d7 3d 81 ce 0c 3e e6 d7 48 3d 24 45 ec 3d
       0.105454795 0.1375065 0.04903402 0.11536625
000050 5e f4 b1 3d 44 1c 6a 3d 53 ff 86 3d a8 3a 83 3d
       0.086891875 0.057155862 0.06591668 0.06407672
000060 a7 88 c3 3d f0 bc b2 3d 80 b7 50 3d 2c 01 cb 3d
       0.09547549 0.08727443 0.05095625 0.09912333
000070 52 5d d1 3d 66 d5 9a 3d bb 02 40 3e 13 e5 0a 3e
       0.102228776 0.07560234 0.18751042 0.13563947
000080 05 2f 17 3e da be ef 3d 9e 78 85 3d 68 1d ad 3d
       0.1476403 0.11706324 0.065171465 0.084528744
000090 c2 74 9b 3d 23 20 07 3e 42 2b d5 3d 0f ab fe 3d
       0.07590629 0.13195853 0.104086414 0.124349706
0000a0 23 1d e7 3d a9 a1 dc 3d a8 ed c6 3d ef 67 83 3d
       0.11284854 0.10773022 0.09713298 0.06416308
0000b0 ef d8 a2 3d 7e a8 af 3d b8 68 94 3d 6b 44 07 3e
       0.07951533 0.08577059 0.07246536 0.13209693
0000c0 46 7a 6d 3d c8 82 7f 3d fb 2e 09 3e 53 70 bb 3d
       0.057977937 0.062380582 0.13396828 0.091522835
0000d0 c5 9a 2c 3d 9d d0 a3 3d 3c 0e c4 3d 59 ee 38 3e
       0.042139787 0.07998774 0.095730275 0.18059672
0000e0 18 86 cb 3d 71 e5 39 3e 2f 82 ad 3d 11 af 15 3e
       0.09937686 0.18153931 0.08472096 0.14617564
0000f0 cb df 82 3d a9 cd cd 3d 44 1b ba 3d be 40 e1 3d
       0.06390341 0.10048992 0.09087232 0.10998677

encoder.6.weight f4 [128, 64, 3]
000000 25 2d ab bc f2 2a 62 bd 24 4f ae 3d 16 b1 7a 3d
       -0.02089555 -0.055216737 0.085111886 0.06120404
000010 42 4f f6 3c 64 6d 23 3d 22 a9 4d 3c d7 7a 1e bd
       0.03006709 0.039899245 0.012552531 -0.038691368
000020 f6 90 87 bc 26 27 b7 38 f4 9f 4a bd 88 31 cf bc
       -0.016548615 8.733412e-05 -0.04946895 -0.025292173
000030 0e b8 0e bd 65 45 4f 3d 81 c1 b2 bc 88 60 0e 3d
       -0.034843497 0.05060329 -0.021820785 0.034760028
000040 09 3f 55 3b 05 1d 20 bd 76 e1 1d bc 98 9a 87 3d
       0.0032538793 -0.039090175 -0.009636274 0.06621283
000050 85 7f 8c b9 4b 99 44 3b a9 2e 67 bd f1 f5 f1 bc
       -0.0002679789 0.0029998596 -0.056440983 -0.02953622
000060 f7 a3 8e bc 5d 5f 3c 3d ad 46 cb bc ed be 6b bc
       -0.017412169 0.045989383 -0.024813974 -0.014388782
000070 32 9d 7f bc 04 0b fe ba a7 2f 8a 3d 4b 34 f8 3c
       -0.015601443 -0.0019381945 0.0674737 0.030298373
000080 ce f8 5b bb c8 29 f1 3a 91 0d fc 3b 77 6a 80 3d
       -0.0033565047 0.0018399293 0.007692047 0.062703066
000090 91 92 b3 3c c4 f6 5c 3d 1f 87 f7 3c 3e 45 a4 3b
       0.021920474 0.05394627 0.030215798 0.005013137
0000a0 95 27 64 3d ae f4 58 3d 93 9d ab bd e9 f7 83 bc
       0.05570181 0.05296772 -0.08379664 -0.016109424
0000b0 36 47 ed bc 00 c7 8e 3d bf 7f 7b 3d 59 7a 01 bd
       -0.02896462 0.0697155 0.061401125 -0.03161082
0000c0 f1 5d 33 3d 33 c8 35 bc e7 a0 38 bd 64 d1 65 bd
       0.04379076 -0.0110950945 -0.045075323 -0.056107894
0000d0 06 eb 4f 3d fc 58 78 bc 37 43 9f 3d 1d 92 0b bd
       0.050761245 -0.015157934 0.07776492 -0.03407489
0000e0 45 26 68 bd 96 22 f9 bc e3 d8 6b 3d a3 e3 21 bd
       -0.05667712 -0.030412 0.057579886 -0.039523732
0000f0 86 0e a0 bc f9 2a 0b bd 91 f8 a4 bd 36 2a 7d b9
       -0.019538175 -0.03397653 -0.08055223 -0.00024143685
000100 3f ef 0a bd 06 d4 52 bc 6c eb 9d 3d e8 08 74 bd
       -0.03391957 -0.012867933 0.07710919 -0.059578806
000110 50 3c eb bc f8 e1 91 3d 23 6b 4c bd 2b f9 87 bc
       -0.028715283 0.07123178 -0.04990686 -0.016598305
000120 f2 49 a7 3d 71 ed b3 bc f0 7e 9a 3c 5a df 08 3d
       0.08168401 -0.021963807 0.018859357 0.03341613
000130 42 eb fa bc ef a0 91 3d 6e 29 55 3d 39 0e cb 3c
       -0.030629758 0.07110774 0.052041464 0.024787055
000140 e3 58 0a 3b 70 04 9f 3d 06 36 ee bc 45 e6 c3 bc
       0.002111011 0.07764518 -0.029078495 -0.023913512
000150 05 9e 6c 3b ff 03 9d bb 4e 9e 6b 3d 99 ac 38 3c
       0.003610493 -0.004791736 0.057524018 0.011271619
000160 b2 f1 0f bc 41 f7 bc 3c f7 38 4e bd 83 bb 9f bd
       -0.008785652 0.023067119 -0.050347295 -0.07799437
000170 6a 1f ae bc e8 d5 b6 3c 46 db 3d 3d 40 07 7e 3d
       -0.021255214 0.022318795 0.046351694 0.062018633
000180 b2 80 87 3d 47 9f 7d 3d d7 39 5f bc 10 a1 50 bd
       0.066163436 0.061919477 -0.01362463 -0.05093485
000190 2e 57 b4 ba 77 57 74 3c ba fa 4c 3d 03 aa b4 bc
       -0.0013758892 0.014913431 0.0500438 -0.022053724
0001a0 b5 5b 85 bc e8 04 f2 39 00 59 3e 3c 95 07 2d bd
       -0.01627908 0.00046161492 0.011617899 -0.04224356
0001b0 81 14 b0 bc 78 fa 5b bd f4 df 56 3d 08 79 08 bd
       -0.021494152 -0.053705662 0.052459672 -0.03331855
0001c0 75 b3 89 3c a0 4e 09 3c 8a 2e 69 3d e5 ad ac 3d
       0.016809205 0.008380562 0.05692915 0.08431605
0001d0 a9 68 57 3d b1 20 df 3c c8 c9 5f 3c 56 df cb 3a
       0.052590046 0.027237268 0.013658948 0.001555423
0001e0 22 0e 7a 3d 01 9f 83 3d 5c df 66 bd 56 f8 6e 3d
       0.061048634 0.06426812 -0.056365356 0.0583423
0001f0 58 f3 3a bd 04 b9 61 3d 7b 9d 8a 3d 76 21 2d bd
       -0.045642227 0.055108085 0.06768318 -0.04226824
000200 80 3a 47 bd c9 7f 33 bd f3 0b 01 3d 0c b5 3b bd
       -0.048639774 -0.043823037 0.031505536 -0.045826957
000210 9d 39 82 bc 2b e2 0f bd bb 80 91 3d 06 34 8a bb
       -0.015896613 -0.0351278 0.071046315 -0.0042176275
000220 8f f6 90 3d ef 17 67 bd 41 b3 5c 3d c0 a4 94 3d
       0.07078277 -0.05641931 0.053881887 0.07257986
000230 e2 57 04 bc c4 00 e6 ba 86 9f 46 bd 5f 27 f3 3c
       -0.0080775935 -0.0017547836 -0.048491977 0.02968186
000240 a5 48 84 3c 81 f7 0e bd 38 de 3e bd e7 49 2e 3d
       0.01614792 -0.034904007 -0.046598643 0.042550948
000250 0f ed 19 bd d0 03 bc bd 19 2c fe b9 3c 41 39 3d
       -0.037579592 -0.09180415 -0.0004847951 0.045228228
000260 7a b1 45 bc f8 0c 33 bc 22 0c 95 3c 95 1e a2 3c
       -0.0120662395 -0.010928385 0.018194262 0.019789973
000270 b4 11 32 3d 43 4a 4a 3d 4a 87 0a 3d f0 9c 34 3d
       0.043473914 0.049387228 0.033820428 0.04409498
000280 b3 d6 c7 bc d8 42 a0 3d 92 0d 31 3d 7d df a5 bd
       -0.024394369 0.078252494 0.043225832 -0.08099268
000290 42 69 5c bd 34 96 96 3d a9 5c 24 3d 73 a3 2a bd
       -0.05381132 0.07352868 0.04012743 -0.041659784
0002a0 06 ff 70 bd 4c 0e 90 3c 88 62 62 bd a7 46 b8 3c
       -0.05883696 0.017584942 -0.055269748 0.022494627
0002b0 06 16 a6 3d f2 14 47 bc e5 96 49 bd 38 2e 8c bd
       0.081096694 -0.01215099 -0.04921617 -0.06844753
0002c0 45 c5 a6 3c 2b 95 fe 3c 1f af 96 bc 4f 4f 0b bc
       0.020357737 0.031076988 -0.018394051 -0.008502795
0002d0 e2 f0 32 bb 12 d5 29 3d fc 70 8e bd 90 9a 0c 3d
       -0.0027304222 0.041462965 -0.06955144 0.03432709
0002e0 f5 b2 bd 3c 7a 82 9d 3d c1 6f 73 3d 63 0d 35 3d
       0.023156622 0.07690902 0.05943275 0.04420222
0002f0 e0 c9 f9 bb 31 03 c5 3c ba a3 dd 3c 12 4b 13 bd
       -0.0076229423 0.024049373 0.02705561 -0.035960265
000300 ce e3 81 3c 49 e7 a1 3b 1f e0 07 bd ad c7 fb bc
       0.015855696 0.0049409014 -0.033172723 -0.030734861
000310 ce b0 50 bd c0 a1 9f 3c 28 0d 7b bd f3 f9 3c bd
       -0.050949864 0.019486308 -0.061291844 -0.046136808
000320 e7 31 12 bc 85 b5 5e bc 56 c0 2b bc f4 60 14 bd
       -0.00892303 -0.013593082 -0.010482868 -0.036225274
000330 c6 4a 78 bc 5e f1 58 3d ce d0 8a 3d 22 f3 ce 3c
       -0.015154546 0.05296456 0.067781076 0.02526242
000340 6b 05 1d 3a be fb 03 bd 15 8b 70 3d 68 a8 ab bc
       0.0005989882 -0.032222502 0.05872639 -0.020954326
000350 45 20 7e 3d 54 93 c7 bc 55 7d 6d bd 51 29 a8 3c
       0.062042493 -0.024362244 -0.057980854 0.020527514
000360 ca 43 e8 bc 59 63 4b bd 23 80 25 3d 81 1c 94 3c
       -0.028352637 -0.049655292 0.040405404 0.018079998
000370 98 38 b7 3d ed 77 89 bb 13 c2 f7 bc 44 59 2d bc
       0.08946341 -0.0041952045 -0.030243909 -0.010580365
000380 0b 96 3a b9 14 c9 cb bc 0d f1 90 3d a0 d3 11 bd
       -0.00017794238 -0.024876155 0.07077227 -0.035602212
000390 3e 07 d8 3b a6 5b 92 3c 75 32 07 3d cd b7 9c bc
       0.00659266 0.017865967 0.033007104 -0.019130612
0003a0 c3 f8 1d 3c ae 8a 8e bd c8 e9 5d bd e5 b2 13 bd
       0.009641829 -0.06960045 -0.05417803 -0.03605928
0003b0 29 92 6d bd e0 1d 3a bc cc 28 85 bd c1 a6 b4 bc
       -0.058000717 -0.011359662 -0.06501922 -0.02205217
0003c0 14 e1 16 3d 28 d3 f2 bc 2e bb 67 3d df ea 5e bc
       0.036835745 -0.029641703 0.056574993 -0.013605802
0003d0 fe 18 4f 3d 34 ce 40 3c fb 3f 0e bd bc 0a 67 bd
       0.050560944 0.011767913 -0.034728985 -0.05640672
0003e0 7f 38 a1 3d dc 91 29 3d 1a 3e 89 bd 98 29 c8 3b
       0.07872104 0.041398868 -0.06701298 0.006108474
0003f0 59 c7 61 bd 7a 27 39 3d 08 6e 86 bd c4 cc 19 bc
       -0.055121753 0.045203663 -0.065639555 -0.009387199

encoder.6.bias f4 [128]
000000 27 6f e0 bc 23 02 13 3d 5c 44 85 3d ed 85 9b 3d
       -0.027396752 0.03589071 0.06507179 0.07593904
000010 77 23 33 3c b3 8f d0 3d c9 02 46 3c 89 32 74 3d
       0.010933748 0.101836585 0.012085625 0.059618507
000020 7d 64 2d 3d 6d 37 eb 3c 52 7e eb 3c d9 04 02 3d
       0.04233216 0.028712953 0.028746758 0.031742904
000030 50 03 4c 3d 15 6b f9 bc bd 30 54 ba 51 66 12 bc
       0.049807847 -0.030446569 -0.0008094421 -0.008935527
000040 d3 db 06 3d e8 47 be bb 66 c0 5f 3d 4c 9b 74 bc
       0.032924484 -0.0058069117 0.054626845 -0.014929604
000050 82 6d bc 3d b2 19 6b 3d 50 61 42 3d a4 1e 8a bd
       0.092005745 0.05739755 0.047456086 -0.067441255
000060 00 38 d5 bb 4d ad 82 bd a2 a8 eb 3b 42 ce 74 bd
       -0.00650692 -0.06380711 0.0071917335 -0.059767015
000070 3e 93 1c bd 0a 29 06 bd 70 dc 96 3a 55 01 9e bc
       -0.03822636 -0.03275398 0.0011509787 -0.019287745
000080 c4 6c 66 bc 5c 3a e6 bc 65 93 4b ba 58 24 76 bd
       -0.014064018 -0.028104 -0.0007765799 -0.060093254
000090 d0 d3 32 3d a3 81 9b 3c 57 9c 98 3d f4 d2 11 bc
       0.04365903 0.018982714 0.074516945 -0.008900393
0000a0 41 bf bd 3d 04 a5 16 bd 8c fe 80 3d c4 28 14 bd
       0.092649944 -0.036778465 0.06298551 -0.03617169
0000b0 a7 d9 38 bc d0 7a 31 3d 30 bb b0 3c 2f 41 18 bd
       -0.011282361 0.043330014 0.021573633 -0.03717154
0000c0 44 d1 4c 3d db b8 1b 3c c6 92 6a 3d 86 cc f4 bb
       0.05000426 0.009504522 0.05726888 -0.00747067
0000d0 db 23 99 3d 54 64 40 bd 45 8f 8a 3d 05 38 cd 3c
       0.07477542 -0.04697068 0.06765608 0.025051126
0000e0 50 55 04 bd a6 e6 3e bc e2 fd 6f bd 9e ce 9b 3d
       -0.032307923 -0.011651671 -0.05859173 0.076077685
0000f0 5f b0 1b bd e1 28 13 bd 83 a3 e2 3c ec fb 15 3d
       -0.038009997 -0.035927657 0.02766586 0.036617205
000100 b3 4d dc bc b1 fb f6 bb 24 e4 39 3d 5f fb 91 3d
       -0.026892519 -0.007537328 0.045383587 0.07128023
000110 19 56 ac 3d 10 6e 0f bd 5b a5 06 bd 1a 0b 95 3d
       0.08414859 -0.035017073 -0.03287254 0.07277508
000120 cf 45 b0 3c 40 de df bc 42 1d a8 3d fb 63 d3 bc
       0.021517662 -0.027327657 0.082087055 -0.02580451
000130 2d d1 2e bc e7 97 46 3d 81 c6 3d bd 35 4d 55 bd
       -0.010669989 0.04848471 -0.046331886 -0.052075583
000140 31 0b b9 3d b3 8a 53 3a 6e 19 91 bc 69 9f 87 3c
       0.09035338 0.0008069679 -0.017712321 0.016555505
000150 a5 8a 04 3c 74 db 16 3c d4 a1 c9 bc 83 37 a2 bc
       0.008089696 0.009207595 -0.024613298 -0.01980186
000160 0d 97 44 bd 7d f2 b6 3b 9f d1 bd 3c 5d 13 69 bb
       -0.047995616 0.005583106 0.023171244 -0.003556452
000170 9a 16 81 3c b6 10 2e bc 88 41 ce 3b 37 be 20 bd
       0.015757848 -0.010624101 0.006294433 -0.039243903
000180 a6 8e ce 3d e7 03 5e 3d 15 1e a5 3c bb 9c d6 3c
       0.10085802 0.05420294 0.020155946 0.026197782
000190 c6 87 80 3d a9 6c 84 bd fc 8b a7 3d 82 60 1e 3d
       0.06275897 -0.06466038 0.08180997 0.038666256
0001a0 06 20 66 bd f4 87 a9 3d 23 e1 0e 3d 12 9b 74 bc
       -0.056182884 0.08277884 0.034882676 -0.01492955
0001b0 78 7a b5 ba bf 65 26 3c 77 5d 0e bc 73 77 62 3c
       -0.0013845703 0.010156094 -0.008689276 0.013822424
0001c0 5c ce 86 3d a7 36 77 bc 58 87 98 3d a5 c3 58 3d
       0.06582329 -0.015088714 0.0744769 0.052920956
0001d0 88 d2 51 3c 0d 0b 83 3d 95 dc eb bc 04 64 5a 3d
       0.012806542 0.06398592 -0.028791705 0.05331804
0001e0 c2 df 8a 3c f1 fe 34 bd e7 39 8f 3d a0 58 59 3d
       0.0169524 -0.044188444 0.06993466 0.053063035
0001f0 c7 f9 4e bd b5 fb 3f bc 29 30 3a 3c 52 f0 2b bd
       -0.050531175 -0.0117177265 0.011364021 -0.041977234

encoder.8.weight f4 [128]
000000 0a 2b 7f 3f e6 88 82 3f fd dc 7c 3f 43 18 7c 3f
       0.9967505 1.0198028 0.987747 0.9847452
000010 da 77 7b 3f 58 41 80 3f 1b 33 85 3f fe 38 84 3f
       0.98229754 1.0019941 1.0406221 1.0329893
000020 53 02 80 3f 63 0f 7c 3f 20 b5 82 3f 5e ce 81 3f
       1.0000709 0.9846098 1.0211525 1.0141103
000030 83 93 80 3f 3e d9 7a 3f 15 9c 7a 3f 06 19 81 3f
       1.0045017 0.97987735 0.9789441 1.0085762
000040 6f 30 7e 3f 6f 6d 80 3f ec d2 81 3f e5 64 82 3f
       0.99292654 1.0033396 1.0142493 1.018704
000050 96 95 7d 3f 51 75 80 3f f7 ce 81 3f a6 b7 7a 3f
       0.99056375 1.0035802 1.0141286 0.97936475
000060 3d fd 7d 3f 04 ae 82 3f 48 8c 7c 3f 4d c1 79 3f
       0.99214536 1.0209355 0.9865155 0.9756058
000070 76 8d 7a 3f 0e 0d 7d 3f 9f 73 81 3f e9 18 80 3f
       0.978721 0.98848045 1.011341 1.0007602
000080 8c 66 7e 3f f0 91 7a 3f a1 4a 7f 3f 81 fe 83 3f
       0.99375224 0.9787893 0.9972325 1.0312043
000090 80 4c 83 3f 41 51 78 3f 34 8b 7a 3f b7 c6 81 3f
       1.0257721 0.96998984 0.9786866 1.0138768
0000a0 74 25 80 3f 0a 71 81 3f 24 8a 7d 3f aa b8 82 3f
       1.001143 1.0112622 0.9903891 1.0212605
0000b0 0d 44 82 3f 94 79 81 3f 22 12 81 3f 56 66 7b 3f
       1.0177017 1.0115228 1.0083659 0.9820303
0000c0 fe 7c 80 3f e6 6a 7b 3f 47 6a 81 3f 36 38 81 3f
       1.0038145 0.9820999 1.0110558 1.0095279
0000d0 64 e1 81 3f 01 25 80 3f 7d 69 80 3f 93 a5 80 3f
       1.0146909 1.0011293 1.0032192 1.0050529
0000e0 c8 83 7f 3f db fe 84 3f 72 23 7c 3f f8 2f 81 3f
       0.9981046 1.0390276 0.98491585 1.0092764
0000f0 2a 34 7e 3f 32 9f 7e 3f 4a dd 7c 3f 75 3a 7c 3f
       0.99298346 0.9946166 0.9877516 0.985267
000100 04 2e 7f 3f e4 0c 82 3f f8 b2 7a 3f 8d 4e 80 3f
       0.9967959 1.0160184 0.97929335 1.0023972
000110 2f e9 7b 3f 4e da 80 3f 76 be 7f 3f 44 56 7d 3f
       0.98402685 1.0066621 0.99899995 0.98959756
000120 e8 c5 7a 3f 3a bf 81 3f 96 5e 7e 3f c0 48 77 3f
       0.9795823 1.0136483 0.99363077 0.9659538
000130 b5 82 7c 3f e4 6e 80 3f e2 b7 83 3f 56 e5 7d 3f
       0.98636943 1.0033841 1.0290492 0.99178064
000140 58 68 7b 3f d2 c4 7e 3f 59 50 83 3f 2f 25 81 3f
       0.9820609 0.99519074 1.0258895 1.0089473
000150 d6 86 82 3f 77 9e 7f 3f 36 89 82 3f 88 12 83 3f
       1.0197399 0.99851173 1.0198123 1.024003
000160 9c c2 82 3f 22 a1 82 3f f4 6b 81 3f 13 4b 80 3f
       1.021564 1.0205424 1.011107 1.0022911
000170 ae c7 7e 3f 59 d5 7b 3f b4 16 80 3f 44 5a 7f 3f
       0.9952344 0.9837242 1.0006928 0.9974711
000180 51 ef 7e 3f 21 9d 7e 3f a6 dd 7f 3f 7c 99 7f 3f
       0.9958392 0.9945851 0.99947584 0.99843574
000190 b9 e5 7e 3f e8 48 7a 3f b5 98 80 3f da bf 80 3f
       0.9956928 0.97767496 1.0046602 1.0058548
0001a0 3f e9 7e 3f b2 11 80 3f b4 04 7f 3f 09 d8 84 3f
       0.99574655 1.00054 0.9961655 1.0378429
0001b0 77 ba 81 3f a0 9c 7e 3f 5c f5 80 3f 19 8b 80 3f
       1.013503 0.9945774 1.0074878 1.0042449
0001c0 f1 af 80 3f b4 99 80 3f 16 14 7f 3f f4 ae 7c 3f
       1.0053693 1.0046906 0.99640024 0.9870446
0001d0 7d 64 7b 3f d5 cd 7f 3f 08 31 7d 3f fe a1 80 3f
       0.9820021 0.9992345 0.9890294 1.0049436
0001e0 14 34 7b 3f 93 c1 7d 3f 6a 78 80 3f 7d fa 80 3f
       0.9812634 0.99123496 1.0036747 1.0076443
0001f0 e2 ec 79 3f 57 24 7b 3f d5 34 75 3f f1 c9 81 3f
       0.9762708 0.98102325 0.9578374 1.0139753

encoder.8.bias f4 [128]
000000 e7 3b 01 bc ec fe e5 3c b1 80 03 bc d6 eb 10 bc
       -0.007887817 0.028075658 -0.008026288 -0.00884529
000010 1c 94 45 bb 85 5e 2b bb d7 f6 ac 3c 34 1b 0d bd
       -0.0030148095 -0.0026148867 0.021113796 -0.03444977
000020 d3 1e 62 bc 51 2d eb 3c 1c 0f 2c bd 87 a8 8a bb
       -0.013801294 0.028708132 -0.042006597 -0.004231516
000030 34 ef d3 bb 82 c9 1a bd 37 37 85 3c d7 53 4f bc
       -0.006467724 -0.03778983 0.01626168 -0.012654266
000040 eb 29 c1 bc b4 30 e5 3b 11 b1 ce bb 7e 2e b7 bb
       -0.023579558 0.0069943313 -0.006307729 -0.005590259
000050 98 68 89 3c 8b 36 8b 3b 20 a0 9a bc 7e 93 4f 3d
       0.016773507 0.0042484454 -0.018875182 0.05067777
000060 ee f0 7b 3b 3c 22 a4 bc 93 34 bb 3c b5 60 2f 3d
       0.0038443166 -0.020035855 0.022852218 0.042816836
000070 f7 b4 b5 3c da 6e b7 3b 88 fb 16 3d d0 4d 76 3c
       0.022181017 0.0055979313 0.036860973 0.0150332
000080 44 48 20 b8 44 3b 14 3d 0d 82 48 bd c1 ab 44 bd
       -3.8214275e-05 0.036189333 -0.04895215 -0.04801536
000090 6e 99 2c bc d7 5f 9a 3c b8 06 98 3c db 6e 19 bd
       -0.010534627 0.018844528 0.018557891 -0.037459236
0000a0 63 78 07 3c a6 c6 9d 3c f6 f4 93 bb bc da 09 bd
       0.0082684485 0.019259762 -0.0045152856 -0.033655867
0000b0 4c bb 00 bd b1 2b c3 3a 08 de 16 3c e8 9a cc 3c
       -0.03142862 0.001489034 0.00920821 0.024976209
0000c0 00 36 24 3d d9 67 c4 ba 77 b1 37 3b 3c 39 96 bc
       0.04009056 -0.0014984562 0.0028029361 -0.018337838
0000d0 a6 bf bf 3c 97 0d bd 3c 4c 8e 03 bc fb da f1 3c
       0.023406815 0.02307777 -0.008029532 0.029523363
0000e0 72 bd 43 bc 71 cf 27 3b 73 a3 a2 bb 28 9c e7 bc
       -0.011947023 0.0025605822 -0.0049633323 -0.028272703
0000f0 e9 d9 3c bc 70 fe a2 3c 66 ac 6e bc 50 7e e7 bc
       -0.011526563 0.019896716 -0.01456747 -0.028258473
000100 f0 3a 34 3d 07 89 21 3c ae df 50 bc e4 7f 62 bc
       0.04400152 0.00985933 -0.012748642 -0.013824437
000110 f4 c8 ec ba 1c 35 87 3b 05 8a 8b 3b 69 ac 8e bc
       -0.001806526 0.004126204 0.0042583966 -0.017416196
000120 ec bc 41 3b 07 72 0f bd ad dd a1 3a 1e ca 1a 3c
       0.002956207 -0.035020854 0.001234939 0.009447603
000130 ce 6c 79 bb cb 19 6d bc d0 f0 12 bd 04 98 fb bb
       -0.0038059237 -0.014471482 -0.035874188 -0.007678034
000140 cd 90 53 bc 55 e5 1e 3c 0a e0 44 bd 7c e0 8b bb
       -0.012912941 0.009698232 -0.048065223 -0.004268704
000150 ce 0b 85 bd e8 c0 b0 bb 39 3d 00 3c de 65 49 bd
       -0.06496392 -0.00539409 0.007827097 -0.049169414
000160 54 28 9f bb 76 3d 7d bc 97 96 4d 3c 61 a2 0b bc
       -0.0048571024 -0.015456548 0.01254811 -0.008522601
000170 f4 27 86 bc 15 e2 d2 bc 40 e2 bb bc 7c 73 14 ba
       -0.016376473 -0.02574257 -0.022935033 -0.00056629605
000180 49 d7 da bb b0 9e a1 bc 60 6f b7 3a cb 12 3d bc
       -0.006678496 -0.019728988 0.0013994984 -0.011540125
000190 33 51 c6 bb af 4a ba bc b1 2d 0f 3c 9f 06 00 3c
       -0.00605216 -0.02274069 0.008738921 0.007814079
0001a0 b4 db 15 3d e2 c1 fb 3c a9 a1 b3 bb 2b 65 da bc
       0.03658648 0.030732099 -0.005481918 -0.026659569
0001b0 58 25 3d bc a2 2b 8b bc 83 a7 6c 3a a0 38 01 3c
       -0.011544548 -0.01698858 0.0009027647 0.007887036
0001c0 5f ce cd bc 27 8e 07 bc 55 70 47 bb ed e7 94 3c
       -0.02512282 -0.008273638 -0.0030431945 0.018176997
0001d0 21 9f 30 3c 40 57 b9 bc 13 8e 96 b8 ed 8a a8 3c
       0.010780127 -0.022624612 -7.179021e-05 0.020574057
0001e0 89 8c 9d 3b be 48 91 bc 0a 30 b6 3c ad 32 d0 bc
       0.004808013 -0.017734881 0.022239704 -0.02541479
0001f0 e7 e3 81 bb 21 aa 7d 3c 37 12 bb 3b 9d 4c 9b 3b
       -0.0039639357 0.015482456 0.0057089585 0.0047393576

encoder.8.running_mean f4 [128]
000000 c2 42 9a 3e 5b 95 a0 3e 89 02 ac 3e 99 b3 c9 3e
       0.30129057 0.3136395 0.33595684 0.39394835
000010 17 8a 93 3e 8e 4f a8 3e 96 a9 c0 3e c2 bb a8 3e
       0.28816292 0.32873195 0.37629384 0.32955748
000020 d3 e6 97 3e 27 9f af 3e b6 98 d2 3e 71 3f b4 3e
       0.29668292 0.3430111 0.41132134 0.35204652
000030 63 52 b5 3e 7d 5c 74 3e de c2 7c 3e 1a dc 9b 3e
       0.3541442 0.23863406 0.24683711 0.30441362
000040 30 1b a7 3e 5c 4f 95 3e 2d 5c c6 3e bf 77 8a 3e
       0.3263793 0.2916211 0.387422 0.27044484
000050 a3 b8 d1 3e fa 5a ba 3e 34 56 a0 3e 1f 79 95 3e
       0.4096118 0.36397535 0.31315768 0.2919397
000060 b9 0f ad 3e 32 76 9c 3e dc e2 b6 3e e8 52 9b 3e
       0.33801058 0.30558926 0.35719955 0.3033669
000070 cd 9b 95 3e 5a a8 aa 3e 4d 83 cb 3e 22 5e be 3e
       0.2922043 0.33331567 0.39748612 0.37181193
000080 2e 03 a4 3e e5 c5 70 3e f6 dd 8c 3e b0 cc b0 3e
       0.32033676 0.23512991 0.27513093 0.34531164
000090 20 9d 87 3e ee be a1 3e 4e 29 d0 3e c0 a4 93 3e
       0.26487064 0.3159098 0.40656513 0.28836632
0000a0 c7 a8 c3 3e b8 fa 9a 3e fd 03 d8 3e fc 94 81 3e
       0.38214704 0.30269408 0.42190543 0.2530898
0000b0 76 0d b6 3e 7b ac d2 3e 18 4c c3 3e ca 64 a6 3e
       0.35557145 0.41147217 0.38143992 0.3249877
0000c0 01 c7 a7 3e 57 16 82 3e d0 6e 88 3e 13 bc ae 3e
       0.32769015 0.2540767 0.26647043 0.34127864
0000d0 2e fc 9c 3e 16 93 a2 3e 9c 0d 6d 3e 98 ab a8 3e
       0.30661148 0.31752843 0.23149723 0.32943416
0000e0 7d 16 90 3e 7b 0b d0 3e 0a fe ad 3e 21 3b fe 3e
       0.28142157 0.4063376 0.3398288 0.49654487
0000f0 9a ef a3 3e dc af 9a 3e f2 0b 9f 3e 81 ae bc 3e
       0.3201874 0.30212295 0.310638 0.36851886
000100 24 c0 ad 3e ff 72 cf 3e 7b b6 8b 3e 59 3f d0 3e
       0.33935654 0.40517423 0.2728766 0.4067333
000110 bb e9 97 3e 2f 23 8b 3e 98 20 a5 3e c6 c0 ae 3e
       0.2967051 0.2717528 0.3225143 0.3413145
000120 1e 34 88 3e d9 26 ae 3e 4e 65 a5 3e a7 04 7e 3e
       0.26602262 0.34014013 0.32303852 0.24806462
000130 a9 8a 84 3e b9 cf 97 3e 47 f2 a1 3e 7f 12 a9 3e
       0.2588704 0.29650667 0.31630155 0.33021924
000140 24 0f 9f 3e f8 43 c4 3e 1e 3b 8b 3e 9e 96 9d 3e
       0.3106624 0.38333106 0.2719354 0.30778974
000150 6f 22 b6 3e 9e bb b1 3e 7a de a2 3e 86 24 97 3e
       0.35573146 0.34713453 0.3181036 0.29520053
000160 89 c8 94 3e cd c4 04 3f 40 2c cb 3e 0f bf ad 3e
       0.29059246 0.51862794 0.39682198 0.3393483
000170 25 37 a2 3e f0 a3 ae 3e 40 11 c4 3e 71 0c 80 3e
       0.31682697 0.3410945 0.3829441 0.25009492
000180 af 81 a3 3e ec 20 99 3e 35 ee 9f 3e d8 19 9a 3e
       0.31934878 0.2990793 0.31236425 0.30097842
000190 2b e3 ef 3e 8a 4e 4c 3e 37 74 da 3e 35 e8 a6 3e
       0.46853003 0.19951835 0.4266679 0.32599035
0001a0 e1 29 90 3e 9c ef b2 3e 09 58 90 3e a2 cb a4 3e
       0.2815695 0.34948432 0.28192165 0.3218661
0001b0 99 ea af 3e 56 df 9a 3e f9 38 a2 3e ce c5 a1 3e
       0.3435867 0.30248517 0.31684092 0.31596226
0001c0 e5 69 c3 3e c5 1a 76 3e 06 81 c1 3e 53 78 c6 3e
       0.3816673 0.2403365 0.3779375 0.38763675
0001d0 7a a9 b2 3e d8 60 df 3e ef f6 c2 3e 3c 6e b5 3e
       0.34894925 0.43628573 0.3807902 0.35435665
0001e0 1e ee d0 3e 38 fe 99 3e c5 be ce 3e 93 92 91 3e
       0.4080667 0.30076766 0.4037992 0.2843214
0001f0 fe 79 95 3e b1 fd a9 3e 1f 85 7a 3e d9 d0 8a 3e
       0.29194635 0.33201364 0.24464844 0.27112463

encoder.8.running_var f4 [128]
000000 f0 b6 a5 3e 9c 7c 9a 3e cb 2b 27 3e c5 95 a8 3e
       0.32366133 0.30173194 0.163253 0.32926765
000010 86 d8 68 3e 44 58 81 3e b3 7c 81 3e 68 d5 b5 3e
       0.22738847 0.25262654 0.2529045 0.3551438
000020 9c e8 99 3e 0b bd 23 3e 0d 38 53 3f 18 0c 88 3e
       0.3006028 0.15990083 0.825074 0.26571727
000030 0f 20 8c 3e 50 f4 2e 3e c3 56 df 3d 51 60 7d 3e
       0.2736821 0.17085385 0.1090522 0.24743773
000040 6a be 91 3e 30 9f 0b 3e 94 4f 70 3e 07 38 47 3e
       0.28465587 0.13634944 0.23467857 0.19454966
000050 c4 aa 78 3e 9d 62 6c 3e 00 a1 87 3e 6d 01 68 3e
       0.24283892 0.23084493 0.2649002 0.22656794
000060 f2 17 8a 3e ba 90 29 3f ac df 6a 3e 7e 59 3b 3e
       0.26971394 0.6623646 0.22936887 0.18295857
000070 6d 5e 10 3e d4 9f 4f 3e 5a 61 ad 3e 67 7e 9b 3e
       0.1409852 0.20275813 0.33863336 0.30369875
000080 bc 88 3b 3e 1d b1 26 3e df 89 ca 3e 22 cd 54 3f
       0.18313879 0.16278501 0.39558312 0.8312551
000090 bb 31 9f 3e 8e ed 32 3e 05 7e 55 3e a4 62 49 3e
       0.3109263 0.17473432 0.20848854 0.19666535
0000a0 b9 9e 62 3e 0f 09 89 3e 20 dd 8c 3e b8 2f 77 3e
       0.2213086 0.26764724 0.27512455 0.24139297
0000b0 1b ff a3 3e 5a 20 c5 3e db cb 88 3e 42 8b 68 3e
       0.32030568 0.38501245 0.2671803 0.22709373
0000c0 19 2c 87 3e 29 b7 26 3e c6 06 20 3e 12 df 1f 3f
       0.2640083 0.16280808 0.15627584 0.62449753
0000d0 cd ec 62 3e b9 e8 83 3e e1 7f f2 3d 36 b8 36 3e
       0.22160645 0.2576349 0.11840797 0.17843708
0000e0 19 b8 84 3e b0 87 82 3e 58 e0 a4 3e aa 49 f5 3e
       0.25921705 0.25494146 0.3220241 0.47907764
0000f0 fb 39 7a 3e 12 f2 57 3e f4 a3 5b 3e be 77 95 3e
       0.2443618 0.21088436 0.21449262 0.2919292
000100 91 97 95 3e e1 a8 e4 3e 0e da 46 3e 05 98 d1 3e
       0.29217198 0.44660094 0.19419119 0.40936294
000110 46 50 1f 3e 68 51 5b 3e 80 9a 81 3e 2a 61 da 3e
       0.15557966 0.21417773 0.25313187 0.42652255
000120 8d e7 33 3e 20 7b a8 3e d5 08 7a 3e a3 f6 0c 3e
       0.17568798 0.32906437 0.24417432 0.1376596
000130 56 7a 26 3e fd 17 3d 3e 8d fe eb 3e ec cc 92 3e
       0.16257605 0.18466182 0.46092644 0.28671968
000140 62 90 68 3e 76 2a 0e 3f b7 ed e6 3e 82 ef 77 3e
       0.22711328 0.5553354 0.45103237 0.24212459
000150 af aa c1 3e 3a 79 72 3e e6 37 d8 3e 45 40 c7 3e
       0.37825534 0.23679057 0.42230147 0.3891622
000160 0a ae cb 3e 6e e7 ec 3e d5 33 8c 3e af db 43 3e
       0.3978122 0.46270317 0.27383295 0.19126771
000170 32 a7 87 3e 94 f5 3d 3e cb 80 aa 3e 99 62 82 3e
       0.26494747 0.18550712 0.33301386 0.2546585
000180 cd f0 32 3e e2 9e 3a 3e c8 f8 35 3e 2e 97 92 3e
       0.1747467 0.18224671 0.17770684 0.28630966
000190 88 b5 d2 3e ac 34 05 3e 98 7f ba 3e 6c e5 7b 3e
       0.41154122 0.13008374 0.3642547 0.24599236
0001a0 30 d1 56 3e 27 0b 7d 3e ee 7f 30 3e b4 a4 a0 3e
       0.20978236 0.24711286 0.17236301 0.3137566
0001b0 db 92 82 3e de fa 2f 3e 1f 29 7d 3e ed a8 c2 3e
       0.25502667 0.17185542 0.24722718 0.38019505
0001c0 af 04 23 3e 18 d3 47 3e 80 79 83 3e 09 42 41 3e
       0.15919755 0.1951412 0.25678635 0.18872847
0001d0 36 32 78 3e df b3 a2 3e d4 f0 3d 3e 19 45 9e 3e
       0.24237904 0.31777856 0.185489 0.30912092
0001e0 a1 70 ad 3e d6 5f 8d 3e 1a fd 81 3e 2b 78 b0 3e
       0.33874992 0.2761218 0.25388414 0.3446668
0001f0 4b 9f 44 3e 9f f0 9a 3e d0 be 02 3e f3 8b a4 3e
       0.1920139 0.30261704 0.12768102 0.32138023
