models/checkpoints/autoencoder_best.pth (torch, 265271 bytes, 31 tensors)

encoder.0.weight f4 [32, 1, 3]
-0.5738438 -0.2914525 0.34920335 -0.5460568 -0.011783421 0.085475504 -0.06837785 0.010032356
-0.47870404 0.084422365 0.47736531 -0.29760057 -0.122220695 -0.20968685 0.047374845 0.11099559
-0.37764132 -0.14063427 0.14901187 -0.13442074 -0.30630147 0.15747611 -0.03161745 -0.15615742
-0.5220925 -0.5353686 -0.066984415 -0.2562885 -0.14892907 0.2937945 -0.03039509 -0.39096552
-0.40249065 0.3965224 -0.17124404 0.3428507 -0.3094048 -0.29387268 0.23257853 -0.10317822
0.35411477 -0.12167226 0.1393997 -0.29964215 -0.013341069 0.18245699 0.54083973 -0.5183632
0.22427855 -0.009486867 -0.05646194 0.23042512 0.013534427 -0.38687247 -0.4845775 0.24492253
0.19632544 -0.16900067 0.40178698 -0.122623906 0.32657242 -0.22373872 0.06031389 -0.41410747
0.064556435 -0.1875781 -0.12476088 0.28281695 -0.22176604 -0.40572673 0.447389 -0.32476944
0.46431 -0.18118836 0.23419149 0.52962554 -0.27953696 -0.016308304 0.3120753 0.53435594
0.37528753 0.4866827 0.44267505 0.36242944 0.0010521545 -0.534052 -0.53318936 -0.23862661
-0.10160674 -0.02573483 0.39295757 0.5561134 -0.22832562 0.20911454 0.030519309 0.43331987
00000000: 6de7 12bf 4339 95be c8ca b23e 61ca 0bbf
00000010: 400f 41bc c80d af3d b009 8cbd c05e 243c
00000020: b218 f5be a2e5 ac3d 3a69 f43e 1a5f 98be
00000030: d84e fabd 26b8 56be 200c 423d a851 e33d
00000040: 345a c1be 6e02 10be 9196 183e 97a5 09be
00000050: 8cd3 9cbe 6b41 213e 4d81 01bd bbe7 1fbe
00000060: dba7 05bf eb0d 09bf 202f 89bd 3f38 83be
00000070: dd80 18be 3c6c 963e 20ff f8bc a22c c8be
00000080: 4113 cebe fc04 cb3e 995a 2fbe 208a af3e
00000090: 4e6a 9ebe 7b76 96be 1129 6e3e 1a4f d3bd
000000a0: 884e b53e 4e2f f9bd ccbe 0e3e b26a 99be
000000b0: 8094 5abc 01d6 3a3e 7974 0a3f 73b3 04bf
000000c0: 47a9 653e ce6e 1bbc a344 67bd 90f4 6b3e
000000d0: 80bf 5d3c 2614 c6be 8b1a f8be f9cc 7a3e
000000e0: 8909 493e 830e 2dbe 06b7 cd3e 3e22 fbbd
000000f0: 8034 a73e c31b 65be b30b 773d e505 d4be
00000100: 2a36 843d 7914 40be a282 ffbd 62cd 903e
00000110: a316 63be 6abb cfbe 2c10 e53e 2e48 a6be
00000120: 0aba ed3e 7189 39be e5cf 6f3e 8a95 073f
00000130: 781f 8fbe fe98 85bc 55c8 9f3e 8dcb 083f
00000140: b025 c03e 7a2e f93e 4ea6 e23e 5a90 b93e
00000150: 72e8 893a a2b7 08bf 197f 08bf 895a 74be
00000160: 3217 d0bd dad1 d2bc bc31 c93e 735d 0e3f
00000170: 31ce 69be 1f22 563e a103 fa3c 1adc dd3e

encoder.0.bias f4 [32]
0.114811845 -0.53782827 -0.38314605 -0.26137984 -0.49656335 -0.49400064 0.029037999 0.10818369
-0.5712059 0.029322134 -0.1187872 0.48689973 0.4718327 -0.08113788 -0.16458836 -0.54150355
-0.15640225 -0.35911652 0.21258046 0.5086203 0.55875885 0.51772684 0.565264 -0.54391646
-0.528505 0.31952098 0.43669382 0.17879622 0.21752642 0.3760854 0.058490515 0.2964388
00000000: 7922 eb3d 1daf 09bf b82b c4be 94d3 85be
00000010: 8d3d febe a7ed fcbe 19e1 ed3c 698f dd3d
00000020: 8d3a 12bf f934 f03c b446 f3bd ec4a f93e
00000030: 0e94 f13e 9e2b a6bd da89 28be fa9f 0abf
00000040: e927 20be 1fde b7be b1ae 593e f134 023f
00000050: d20a 0f3f bf89 043f 24b5 103f 1c3e 0bbf
00000060: 1b4c 07bf 4198 a33e 5596 df3e 5b16 373e
00000070: 3fbf 5e3e 448e c03e c093 6f3d d4c6 973e

encoder.2.weight f4 [32]
0.999 1.0 1.0 0.999 1.0 1.0 0.999002 0.999
1.0 1.001 1.0 1.001 0.9990001 0.999 1.0 1.001
0.9990001 1.0 1.001 0.999 1.001 0.999 0.999 1.0
1.001 1.001 1.001 1.001 0.999 0.999 0.999 1.001
00000000: 77be 7f3f 0000 803f 0000 803f 77be 7f3f
00000010: 0000 803f 0000 803f 98be 7f3f 77be 7f3f
00000020: 0000 803f c520 803f 0000 803f c520 803f
00000030: 78be 7f3f 77be 7f3f 0000 803f c520 803f
00000040: 78be 7f3f 0000 803f c520 803f 77be 7f3f
00000050: c520 803f 77be 7f3f 77be 7f3f 0000 803f
00000060: c520 803f c520 803f c520 803f c520 803f
00000070: 77be 7f3f 77be 7f3f 77be 7f3f c520 803f

encoder.2.bias f4 [32]
0.0009999886 -0.0009999968 0.0009999924 0.0009999948 0.0009999949 -0.0009999893 -0.000999989 0.0009999973
0.0009999918 -0.0009999975 -0.0009999928 0.000999996 0.0009999962 -0.0009999967 0.0009999895 -0.000999996
-0.0009999957 -0.000999998 0.0009999932 0.0009997251 -0.0009999978 0.000999991 -0.0009999903 -0.0009999919
-0.0009999971 0.0009999936 0.0009999952 0.0009999928 -0.0009999971 0.0009999938 -0.0009999922 0.0009999919
00000000: 0d12 833a 5312 83ba 2d12 833a 4212 833a
00000010: 4312 833a 1312 83ba 1012 83ba 5712 833a
00000020: 2812 833a 5912 83ba 3112 83ba 4c12 833a
00000030: 4e12 833a 5212 83ba 1412 833a 4c12 83ba
00000040: 4a12 83ba 5d12 83ba 3412 833a 3509 833a
00000050: 5c12 83ba 2112 833a 1b12 83ba 2912 83ba
00000060: 5612 83ba 3812 833a 4512 833a 3112 833a
00000070: 5612 83ba 3912 833a 2c12 83ba 2912 833a

encoder.2.running_mean f4 [32]
0.0036633338 0.0 0.0 0.0019257745 0.0 0.0 0.0008570323 0.009517711
0.0 0.0036563296 0.0 0.0744138 0.029865205 0.0037180677 0.0 5.03632e-05
0.00032140838 0.0 0.020207083 0.056170847 0.06303235 0.027153254 0.05393673 0.0
8.768179e-05 0.04222661 0.09985644 0.07706107 0.0020584816 0.020816058 0.03915152 0.060340103
00000000: 8b14 703b 0000 0000 0000 0000 456a fc3a
00000010: 0000 0000 0000 0000 77aa 603a 2cf0 1b3c
00000020: 0000 0000 089f 6f3b 0000 0000 4366 983d
00000030: e0a7 f43c d3aa 733b 0000 0000 133d 5338
00000040: b482 a839 0000 0000 5389 a53c 6713 663d
00000050: 1b17 813d 8070 de3c c3ec 5c3d 0000 0000
00000060: cde1 b738 cff5 2c3d 8981 cc3d 32d2 9d3d
00000070: 97e7 063b 7086 aa3c 585d 203d 2f27 773d

encoder.2.running_var f4 [32]
0.9005235 0.9 0.9 0.9001936 0.9 0.9 0.9000425 0.9003465
0.9 0.90035135 0.9 0.90282136 0.90200955 0.90031374 0.9 0.90000314
0.90000945 0.9 0.90212464 0.9016545 0.9012977 0.9020395 0.901163 0.9
0.90000457 0.90288013 0.9061651 0.9066783 0.9003459 0.9007131 0.90470093 0.90241104
00000000: b588 663f 6666 663f 6666 663f 1673 663f
00000010: 6666 663f 6666 663f 2f69 663f 1c7d 663f
00000020: 6666 663f 6d7d 663f 6666 663f 4d1f 673f
00000030: 19ea 663f f67a 663f 6666 663f 9b66 663f
00000040: 0567 663f 6666 663f a4f1 663f d4d2 663f
00000050: 72bb 663f 10ec 663f 9eb2 663f 6666 663f
00000060: b366 663f 2723 673f 70fa 673f 121c 683f
00000070: 127d 663f 2295 663f 7b9a 673f 6904 673f

encoder.3.weight f4 [64, 32, 3]
0.023607092 -0.06735208 -0.033933643 0.043317854 -0.06340539 -0.08483675 0.026419625 -0.0076422542
-0.05339175 0.07120737 0.000121098245 0.0802069 0.019223683 -0.017787576 -0.0007387921 -0.06210054
0.032223284 -0.0643913 0.043458406 0.06820981 -0.053679243 -0.09850267 -0.096415 -0.068464644
0.09460646 -0.062953904 -0.012011096 -0.02675907 0.019610634 0.077145815 -0.07741657 0.04179877
0.10162757 -0.07052594 -0.07824303 -0.025701296 0.06627273 0.08243692 0.054339956 0.0802793
0.074587926 -0.019320745 -0.042704552 -0.09612149 0.0026796386 -0.034824297 0.09521417 0.021284923
0.022667382 -0.08842476 0.03597621 -0.07854566 0.050959125 -0.0654021 -0.044092573 -0.0556912
-0.017629191 0.0016020343 -0.07072387 0.06150729 0.015878629 -0.03630938 -0.05542811 -0.07469384
0.08535893 -0.0679913 -0.035547465 0.07306536 -0.0546789 -0.0747186 0.071006 0.052442506
-0.046734117 0.08057453 -0.07692133 -0.101840794 0.054591097 -0.017238628 0.026099738 -0.008644353
0.03186507 0.05463823 -0.030735526 0.02896684 -0.060723934 -0.04568307 0.041765485 0.025308661
0.047793288 0.0337213 -0.09576675 -0.043010715 0.025392195 0.011862498 0.014603686 -0.08070725
0.007266838 0.08002289 0.029037936 -0.0618018 0.03810969 0.025527269 0.07866067 -0.09210069
0.0021075606 0.025361674 -0.054293267 0.028688364 -0.0069556907 0.07418987 -0.058661256 -0.031825997
-0.083425514 0.094718486 -0.0010496234 0.011092771 0.0782704 0.062078852 0.042470317 -0.07134247
-0.05941428 -0.031610794 0.07590155 0.021832366 0.017696109 -0.042410143 0.033435434 0.008649841
-0.08236019 0.099181086 0.02353688 0.0051210113 0.027973752 -0.054519076 0.093250535 0.06637445
0.0069110226 -0.00598279 -0.01772701 0.09942515 -0.05001981 -0.06645545 0.058360685 -0.08030107
0.039370332 -0.018078474 -0.066294976 -0.052389383 -0.077013396 -0.045210928 0.04757867 0.026805539
-0.09981669 0.0007901449 0.02725432 0.050617564 0.020274024 -0.023669641 -0.08291075 -0.015077207
0.090938464 0.02139232 -0.09996356 -0.090661325 -0.0030586612 -0.064349845 0.06972052 0.033396974
-0.011265214 -0.024876617 0.078462675 -0.048040994 0.08667882 0.085327886 0.07031395 0.10244575
-0.047937885 0.052427463 0.08837417 0.044684745 -0.09726043 0.025977034 0.031268753 -0.04477502
0.057904143 0.029011138 0.041712467 -0.0956935 0.03961763 0.035117026 0.033426683 -0.07848454
-0.08738174 0.093523264 -0.08341152 -0.009840041 -0.005596228 -0.07064724 -0.0074125156 -0.065776855
-0.088780895 0.012031705 0.038951527 0.07606849 0.04663208 0.10056545 0.059699267 -0.095903695
-0.059442203 0.024571538 0.095281996 0.0122531885 -0.021765422 -0.0047107073 0.0970591 0.034096543
0.021168642 -0.0013695508 -0.07753008 -0.053318202 0.080353096 0.0371201 -0.049631048 -0.090951316
0.06047359 -0.065954134 0.0068260883 -0.08182825 0.040317424 -0.034126427 -0.087082505 -0.068836585
-0.0661337 -0.03479996 0.011685275 0.049324438 0.05212994 -0.053493444 0.02803899 0.085318886
0.024079653 -0.09434466 -0.016021956 0.0059873685 -0.0982455 -0.016823657 0.071145795 0.021214474
0.09663755 -0.032064963 -0.050988343 0.06822395 0.038378496 -0.0050038076 -0.01695371 -0.009445604
00000000: a963 c13c e3ef 89bd 01fe 0abd 106e 313d
00000010: afda 81bd e4be adbd f86d d83c e06b fabb
00000020: 4fb1 5abd 2bd5 913d 20f6 fd38 8443 a43d
00000030: fc7a 9d3c 40b7 91bc 80ab 41ba 235d 7ebd
00000040: 90fc 033d 96df 83bd 7101 323d 96b1 8b3d
00000050: c4de 5bbd c5bb c9bd 3a75 c5bd 3137 8cbd
00000060: 08c1 c13d faed 80bd 30ca 44bc d635 dbbc
00000070: 7ba6 a03c a0fe 9d3d 948c 9ebd 3035 2b3d
00000080: 1e22 d03d e76f 90bd e23d a0bd 868b d2bc
00000090: ffb9 873d b0d4 a83d 9393 5e3d 7969 a43d
000000a0: 8ec1 983d 8a46 9ebc f8ea 2ebd 58db c4bd
000000b0: e09c 2f3b eca3 0ebd a6ff c23d b85d ae3c
000000c0: f2b0 b93c 0a18 b5bd ca5b 133d 8cdc a0bd
000000d0: 84ba 503d 89f1 85bd 6a9a 34bd 751c 64bd
000000e0: 186b 90bc 5afb d13a add7 90bd 11ef 7b3d
000000f0: e613 823c 25b9 14bd 9608 63bd 16f9 98bd
00000100: aad0 ae3d 063f 8bbd 389a 11bd 4ba3 953d
00000110: fbf6 5fbd 1106 99bd 986b 913d f4cd 563d
00000120: 466c 3fbd 4204 a53d ee88 9dbd e891 d0bd
00000130: ea9a 5f3d 0638 8dbc 1ecf d53c 0ba1 0dbc
00000140: f384 023d 56cc 5f3d 12c9 fbbc de4b ed3c
00000150: a9b9 78bd 2c1e 3bbd 4912 2b3d 1c54 cf3c
00000160: e5c2 433d 591f 0a3d 5c21 c4bd 012c 30bd
00000170: 4b03 d03c ec5a 423c 4c44 6f3c d849 a5bd
00000180: a81e ee3b 0ae3 a33d f7e0 ed3c e223 7dbd
00000190: e818 1c3d 901e d13c d818 a13d 499f bcbd
000001a0: 001f 0a3b 49c3 cf3c 9e62 5ebd dc03 eb3c
000001b0: 90ec e3bb dcf0 973d c946 70bd fa5b 02bd
000001c0: ffda aabd c4fb c13d 8493 89ba 74be 353c
000001d0: 3b4c a03d 6546 7e3d 5bf5 2d3d 001c 92bd
000001e0: 635c 73bd 527a 01bd 4672 9b3d cad9 b23c
000001f0: 6ef7 903c 42b6 2dbd 98f3 083d 10b8 0d3c
00000200: 76ac a8bd 741f cb3d 6ad0 c03c 28ce a73b
00000210: 3629 e53c 654f 5fbd 23fa be3d 54ef 873d
00000220: dc75 e23b 480b c4bb 3c38 91bc 6a9f cb3d
00000230: 93e1 4cbd cc19 88bd 9d0b 6f3d e374 a4bd
00000240: c942 213d 4f19 94bc a9c5 87bd 4096 56bd
00000250: 33b9 9dbd 182f 39bd dae1 423d 4a97 db3c
00000260: b16c ccbd ba21 4f3a 7444 df3c 5d54 4f3d
00000270: b615 a63c d6e6 c1bc 1ccd a9bd 6406 77bc
00000280: f23d ba3d f23e af3c b2b9 ccbd a5ac b9bd
00000290: d273 48bb dac9 83bd a2c9 8e3d 44cb 083d
000002a0: bb91 38bc 0cca cbbc 0ab1 a03d a2c6 44bd
000002b0: aa84 b13d 63c0 ae3d c300 903d 14cf d13d
000002c0: 845a 44bd 2ebe 563d 84fd b43d 5a07 373d
000002d0: 7a30 c7bd cacd d43c aa13 003d 0366 37bd
000002e0: e52c 6d3d c4a8 ed3c b1da 2a3d f4fa c3bd
000002f0: 1946 223d dfd6 0f3d 6bea 083d 81bc a0bd
00000300: 33f5 b2bd 2089 bf3d a9d3 aabd 2038 21bc
00000310: 9060 b7bb 80af 90bd b0e4 f2bb 04b6 86bd
00000320: c2d2 b5bd a120 453c a38b 1f3d ccc9 9b3d
00000330: 4801 3f3d 42f5 cd3d 3887 743d 2869 c4bd
00000340: ab79 73bd 404a c93c 3523 c33d 99c1 483c
00000350: 664d b2bc 475c 9abb ecc6 c63d d1a8 0b3d
00000360: dc69 ad3c 8082 b3ba 17c8 9ebd 3064 5abd
00000370: 2a90 a43d 3f0b 183d ed49 4bbd af44 babd
00000380: 28b3 773d f612 87bd 61ad df3b 9295 a7bd
00000390: e223 253d 27c8 0bbd 5058 b2bd 32fa 8cbd
000003a0: 1b71 87bd 678a 0ebd 9873 3f3c 6c08 4a3d
000003b0: 3486 553d f11b 5bbd 06b2 e53c abbb ae3d
000003c0: b142 c53c c637 c1bd 7a40 83bc b031 c43b
000003d0: f034 c9bd c4d1 89bc e3b4 913d fac9 ad3c
000003e0: e8e9 c53d 8d56 03bd 27d9 50bd 00b9 8b3d
000003f0: c532 1d3d fbf6 a3bb 82e2 8abc bcc1 1abc

encoder.3.bias f4 [64]
0.022646612 0.0039064027 -0.052263845 0.08983397 -0.06930931 -0.008901912 0.04209163 -0.0632239
0.07489938 0.09761117 0.04214721 -0.0080215 -0.09473055 0.09744631 -0.003262293 0.06917975
-0.050694417 -0.045374904 0.085018225 0.03499033 -0.064087525 -0.04744633 -0.06670474 0.08896074
-0.08071807 -0.054482818 0.051278926 0.0041685426 0.018708177 0.021129685 -0.020930002 0.07603915
-0.06500056 0.03486426 0.0046179616 0.05300107 0.019257149 -0.09289026 -0.08880124 -0.090276144
-0.014604102 -0.03589662 0.0050140778 0.06955032 -0.07609869 0.065368176 0.06819279 -0.06102207
0.08182091 0.053309765 0.034658074 -0.08249292 -0.019195316 0.08695925 -0.08083161 -0.07204394
-0.062050976 0.05972303 -0.061069157 -0.002201458 -0.046793252 -0.09108996 -0.053630777 -0.078847796
00000000: 6385 b93c 4801 803b 9d12 56bd dffa b73d
00000010: 0af2 8dbd 53d9 11bc 4668 2c3d 887b 81bd
00000020: d964 993d 5de8 c73d 8ea2 2c3d 9c6c 03bc
00000030: 1702 c2bd ee91 c73d 32cc 55bb 1dae 8d3d
00000040: f3a4 4fbd 09db 39bd 091e ae3d 0552 0f3d
00000050: 5240 83bd 1557 42bd 7f9c 88bd 0c31 b63d
00000060: 844f a5bd 6029 5fbd da09 523d 4598 883b
00000070: e441 993c 2918 ad3c 6575 abbc 6aba 9b3d
00000080: 031f 85bd d4cd 0e3d 4552 973b a617 593d
00000090: 2bc1 9d3c 403d bebd 6ddd b5bd b3e2 b8bd
000000a0: 0b46 6fbc 5608 13bd 224d a43b 6670 8e3d
000000b0: a1d9 9bbd c0df 853d a9a8 8b3d 47f2 79bd
000000c0: b991 a73d 575b 5a3d a0f5 0d3d 0cf2 a8bd
000000d0: 7f3f 9dbc b117 b23d 0b8b a5bd c68b 93bd
000000e0: 2a29 7ebd 23a0 743d a723 7abd 5646 10bb
000000f0: 48aa 3fbd 5f8d babd f2ab 5bbd f47a a1bd

encoder.5.weight f4 [64]
0.999 0.999 1.0009999 1.001 0.999 1.0009999 0.999 0.999
1.001 0.999 1.001 1.0009999 0.999 1.0009999 1.0009995 0.999
0.999 0.99900013 0.999 1.0009999 1.0009999 0.999 1.0009999 0.999
0.999 1.0009999 1.001 1.001 0.9990004 1.001 1.001 0.999
1.0009999 0.999 0.999 0.999 0.999 1.0009999 0.999 1.001
0.999 1.001 1.0009998 1.0009999 1.001 1.001 1.001 0.9990001
0.999 0.999 0.999 0.999 0.999 1.001 0.999 1.001
0.999 0.999 1.001 1.001 0.999 1.0009999 0.999 1.001
00000000: 77be 7f3f 77be 7f3f c420 803f c520 803f
00000010: 77be 7f3f c420 803f 77be 7f3f 77be 7f3f
00000020: c520 803f 77be 7f3f c520 803f c420 803f
00000030: 77be 7f3f c420 803f c020 803f 77be 7f3f
00000040: 77be 7f3f 79be 7f3f 77be 7f3f c420 803f
00000050: c420 803f 77be 7f3f c420 803f 77be 7f3f
00000060: 77be 7f3f c420 803f c520 803f c520 803f
00000070: 7dbe 7f3f c520 803f c520 803f 77be 7f3f
00000080: c420 803f 77be 7f3f 77be 7f3f 77be 7f3f
00000090: 77be 7f3f c420 803f 77be 7f3f c520 803f
000000a0: 77be 7f3f c520 803f c320 803f c420 803f
000000b0: c520 803f c520 803f c520 803f 78be 7f3f
000000c0: 77be 7f3f 77be 7f3f 77be 7f3f 77be 7f3f
000000d0: 77be 7f3f c520 803f 77be 7f3f c520 803f
000000e0: 77be 7f3f 77be 7f3f c520 803f c520 803f
000000f0: 77be 7f3f c420 803f 77be 7f3f c520 803f

encoder.5.bias f4 [64]
-0.000999924 0.0009999891 -0.0009996798 -0.0009999836 -0.0009999836 0.0009992677 -0.0009999842 -0.0009999874
0.000999992 -0.0009999948 0.0009999938 -0.000999986 0.0009999875 -0.0009999955 -0.000999773 0.000999982
-0.0009999855 0.0009998935 0.000999982 -0.0009999826 -0.0009999068 0.0009999917 -0.0009999847 0.000999994
-0.0009999931 0.000999995 -0.0009999819 -0.0009999948 -0.0009999818 -0.0009999706 -0.0009999834 0.0009999466
-0.0009999942 0.0009999902 0.0009999855 0.0009999801 0.0009999878 0.0009999898 0.0009999948 -0.0009999746
-0.0009999932 0.000999991 0.0009999843 0.0009999821 -0.0009999715 -0.0009999918 0.0009999858 0.0009999826
-0.000999981 0.0009999803 0.0009999893 -0.0009999947 -0.0009999911 -0.0009999949 0.0009999756 -0.000999987
0.00099998 -0.000999994 0.0009999468 -0.0009999835 0.000999969 0.0009995566 0.0009999712 -0.0009999918
00000000: e20f 83ba 1112 833a b007 83ba e211 83ba
00000010: e211 83ba dcf9 823a e711 83ba 0212 83ba
00000020: 2a12 833a 4212 83ba 3912 833a f611 83ba
00000030: 0312 833a 4812 83ba d10a 83ba d411 833a
00000040: f211 83ba dc0e 833a d411 833a d911 83ba
00000050: 4e0f 83ba 2712 833a eb11 83ba 3b12 833a
00000060: 3312 83ba 4412 833a d311 83ba 4212 83ba
00000070: d211 83ba 7211 83ba e011 83ba a410 833a
00000080: 3d12 83ba 1a12 833a f211 833a c411 833a
00000090: 0612 833a 1712 833a 4212 833a 9411 83ba
000000a0: 3412 83ba 2112 833a e811 833a d511 833a
000000b0: 7a11 83ba 2812 83ba f511 833a d911 833a
000000c0: cb11 83ba c511 833a 1312 833a 4112 83ba
000000d0: 2212 83ba 4312 83ba 9d11 833a ff11 83ba
000000e0: c311 833a 3b12 83ba a610 833a e111 83ba
000000f0: 6411 833a 8e03 833a 7711 833a 2812 83ba

encoder.5.running_mean f4 [64]
0.016105339 0.014402243 0.01596914 0.023599582 0.025402993 0.019643154 0.015442942 0.0192649
0.02381516 0.017741727 0.023613738 0.016912958 0.015514247 0.018990386 0.024294358 0.018751916
0.016615734 0.015558 0.022407306 0.019668138 0.011725948 0.013283302 0.021004392 0.02721983
0.0111739915 0.023954084 0.023420194 0.02427965 0.0137319835 0.019332232 0.02467402 0.02321614
0.015997237 0.020568637 0.023160433 0.017190998 0.02365058 0.01041448 0.01741566 0.012026833
0.016661039 0.01695118 0.014644009 0.023819176 0.014379473 0.019792443 0.017193612 0.019367374
0.019423326 0.01882496 0.014237708 0.013928905 0.017939908 0.03220023 0.017277543 0.01198269
0.018537378 0.019407682 0.015722 0.019476814 0.020323116 0.014233099 0.011104537 0.026183126
00000000: 58ef 833c 63f7 6b3c b7d1 823c e953 c13c
00000010: f019 d03c aeea a03c 6504 7d3c 6cd1 9d3c
00000020: 0318 c33c 1957 913c 9971 c13c 0b8d 8a3c
00000030: 782f 7e3c ba91 9b3c f604 c73c 9e9d 993c
00000040: b81d 883c fbe6 7e3c 878f b73c 131f a13c
00000050: 311e 403c 35a2 593c 6711 ac3c 1ffc de3c
00000060: 1e13 373c 5b3b c43c b5db bf3c 1ee6 c63c
00000070: 1dfc 603c a15e 9e3c 2c21 ca3c c62f be3c
00000080: a30c 833c 8f7f a83c f3ba bd3c 23d4 8c3c
00000090: dcbe c13c 7fa1 2a3c 49ab 8e3c 320c 453c
000000a0: bb7c 883c 33dd 8a3c 6ded 6f3c 6f20 c33c
000000b0: e297 6b3c c323 a23c 9ed9 8c3c 54a8 9e3c
000000c0: ab1d 9f3c cd36 9a3c 4745 693c 1036 643c
000000d0: b7f6 923c 63e4 033d a289 8d3c 0b53 443c
000000e0: b3db 973c dcfc 9e3c 6ccb 803c d78d 9f3c
000000f0: aa7c a63c f231 693c ceef 353c ff7d d63c

encoder.5.running_var f4 [64]
0.9046086 0.9039959 0.90770173 0.9089336 0.91297215 0.9089734 0.90381825 0.90914524
0.9093292 0.9052709 0.91044974 0.9069231 0.9073534 0.9068432 0.91008073 0.90556824
0.90737844 0.90511197 0.9105631 0.90704286 0.9043666 0.9046498 0.91062814 0.913539
0.90352774 0.9131584 0.9081062 0.9101074 0.90358895 0.90797985 0.9129392 0.91035086
0.90722567 0.9080173 0.9111676 0.90451616 0.91024923 0.90253985 0.90881497 0.90504235
0.905206 0.90783453 0.90592945 0.91268176 0.9061683 0.9059183 0.9060067 0.907259
0.90810835 0.90773845 0.903196 0.9047746 0.9084315 0.9183574 0.90903234 0.90388685
0.90906197 0.90581 0.905067 0.9078655 0.90903133 0.9056169 0.90286773 0.92457634
00000000: 6e94 673f 466c 673f 245f 683f dfaf 683f
00000010: 8bb8 693f 7bb2 683f a260 673f bebd 683f
00000020: ccc9 683f d5bf 673f 3c13 693f 1d2c 683f
00000030: 5048 683f e026 683f 0dfb 683f 52d3 673f
00000040: f449 683f 6bb5 673f aa1a 693f f633 683f
00000050: 9284 673f 2197 673f ed1e 693f b1dd 693f
00000060: 984d 673f c0c4 693f a679 683f ccfc 683f
00000070: 9b51 673f 5e71 683f 62b6 693f c10c 693f
00000080: f13f 683f d273 683f 4842 693f 5f8e 673f
00000090: 1806 693f da0c 673f 19a8 683f dbb0 673f
000000a0: 95bb 673f d867 683f feea 673f 83a5 693f
000000b0: a5fa 673f 43ea 673f 0ef0 673f 2042 683f
000000c0: ca79 683f 8c61 683f da37 673f 4f9f 673f
000000d0: f78e 683f 7819 6b3f 58b6 683f 2165 673f
000000e0: 49b8 683f 2ae3 673f 79b2 673f e069 683f
000000f0: 47b6 683f 82d6 673f 5722 673f 09b1 6c3f

encoder.6.weight f4 [128, 64, 3]
-0.00052542833 0.021914147 0.06869103 -0.061081547 0.007848434 0.067713104 0.033176932 0.06280541
-0.037945654 -0.066850856 0.038496017 0.06357024 0.0352603 -0.066016175 0.037455663 0.022080878
-0.035292372 0.05633717 -0.06673268 -0.055000838 -4.1421037e-05 -0.017697746 0.06942525 0.04174291
0.06330394 -0.06886418 0.0033041504 -0.056248445 -0.03251048 0.0024479707 0.04076766 -0.04297553
0.04069419 0.05228695 -0.045530755 0.042723875 0.011513821 0.020026855 0.042263903 0.064353116
0.04568304 0.020233152 -0.0655527 -0.053971764 0.030185457 0.015771024 -0.040222477 0.013895151
0.0030415594 0.042894755 0.0061712726 -0.04341961 -0.0066567254 0.013163727 -0.06684282 -0.029143903
-0.024212787 -0.061222024 -0.05187321 0.042672824 0.040320735 -0.02425136 0.027046284 0.066066734
-0.047773637 0.024148406 0.0030737915 -0.048320867 0.054287393 -0.05580461 0.010272816 -0.02658797
-0.03295956 0.009410399 -0.025739953 0.064944915 -0.05405653 -0.05877937 0.025149947 0.061547987
0.025328644 0.049293976 0.07285353 0.02871411 0.037235804 0.037974868 0.018721929 0.0144515345
-0.048348032 -0.015299705 0.028331283 0.037546456 -0.0065413136 0.046562165 0.04864682 0.034456443
0.03250912 0.028815364 0.059401795 0.0067231143 0.00041579292 -0.01949046 0.051201914 0.045219373
0.0074321493 0.053464558 -0.04287808 0.0084753465 0.0008309196 -0.05326015 -0.029485255 0.05559302
0.06372098 0.048318252 0.060510047 0.01952808 0.057650287 -0.0088634975 -0.060549293 -0.061647967
0.01765936 -0.044560675 -0.057147194 -0.058451544 -0.044134304 0.07164069 0.031220319 0.02188832
0.057711627 0.037319247 0.00844582 0.06413451 0.030595327 0.037789702 0.040239222 -0.041437477
-0.06757719 0.061218966 0.066356026 -0.039872598 -0.037048638 0.043066986 0.0042337156 0.014320184
-0.00865088 0.050223984 -0.020393824 0.033340145 0.059490316 0.0005047803 0.06642329 0.012318954
-0.013057297 0.048868902 0.04605349 0.025708614 -0.018414889 -0.006557054 0.010777056 0.0095012495
-0.034677684 -0.060087163 -0.05140919 0.03658768 -0.03357445 -0.037985742 0.072136424 0.03377179
0.027465649 -0.0061037494 0.011958928 -0.03424434 -0.024152605 0.018608874 -0.065088585 -0.062126562
0.040571716 0.02705744 -0.045761846 0.008314714 0.006360113 -0.019815015 -0.027885806 -0.0006286338
-0.040018804 -0.015914321 0.009257584 0.047742292 -0.011792313 0.053834986 0.032273557 0.038570624
0.0546257 0.006861789 -0.058604043 0.04165048 -0.023183418 -0.060129307 0.057479266 0.04308811
0.010788927 0.03961885 -0.03658355 0.057992242 -0.049121793 0.038315475 0.05110081 0.06574219
-0.025198838 0.06730675 -0.03873711 -0.04014456 0.029598942 -0.014606999 -0.007404246 0.009159844
-0.068327986 0.016527819 -0.060987376 0.019942716 -0.0674675 -0.048153296 -0.046246994 0.059509136
0.04413277 0.03497074 -0.05636599 -0.06549216 0.026728224 0.068961255 -0.028726773 -0.028675457
0.0614783 0.04866139 0.02752537 0.03696241 -0.06485574 0.064858586 -0.0030238319 -0.03184194
0.05750736 0.0241552 0.0566917 0.008870507 -0.008113652 -0.061571334 -0.054920558 -0.0040866053
-0.0005786392 0.03658019 -0.047139604 -0.008137493 0.050359562 0.0034226978 0.027169853 -0.018483035
00000000: e6bc 09ba 4c85 b33c e2ad 8c3d a530 7abd
00000010: b896 003c 2bad 8a3d 89e4 073d 1fa0 803d
00000020: e76c 1bbd 1ae9 88bd 00ae 1d3d 1d31 823d
00000030: 1b6d 103d 7d33 87bd 1c6b 193d f5e2 b43c
00000040: bc8e 10bd cec1 663d 25ab 88bd 8f48 61bd
00000050: 80bb 2db8 ddfa 90bc d32e 8e3d 9dfa 2a3d
00000060: 7fa5 813d aa08 8dbd 728a 583b c564 66bd
00000070: b629 05bd 226e 203b fdfb 263d 1c07 30bd
00000080: f3ae 263d d72a 563d 757e 3abd 3bff 2e3d
00000090: 77a4 3c3c 5c0f a43c ea1c 2d3d 91cb 833d
000000a0: 241e 3b3d ffbf a53c 7e40 86bd 7f11 5dbd
000000b0: 7e47 f73c 3c32 813c 53c0 24bd 7da8 633c
000000c0: e654 473b 69b2 2f3d 6338 ca3b c3d8 31bd
000000d0: a920 dabb acac 573c e3e4 88bd 32bf eebc
000000e0: e559 c6bc f2c3 7abd 0179 54bd b3c9 2e3d
000000f0: 5b27 253d caaa c6bc 2b90 dd3c ff4d 873d
00000100: 4aae 43bd e1d2 c53c aa71 493b 1aec 45bd
00000110: 755c 5e3d 6093 64bd 504f 283c 04cf d9bc
00000120: 9b00 07bd 132e 1a3c 98dc d2bc d701 853d
00000130: 616a 5dbd a3c2 70bd 4307 ce3c be19 7c3d
00000140: 047e cf3c 7be8 493d 3b34 953d da39 eb3c
00000150: 9284 183d 898b 1b3d bb5e 993c 21c6 6c3c
00000160: 9608 46bd 9dab 7abc 0217 e83c 50ca 193d
00000170: 8458 d6bb f8b7 3e3d e341 473d 3322 0d3d
00000180: 4828 053d 330e ec3c 4c4f 733d 924d dc3b
00000190: c8fe d939 75aa 9fbc 19b9 513d f337 393d
000001a0: 6389 f33b a7fd 5a3d eda0 2fbd 2edc 0a3c
000001b0: 12d2 593a 5127 5abd 108b f1bc 82b5 633d
000001c0: 2580 823d 5ce9 453d 62d9 773d 5af9 9f3c
000001d0: b522 6c3d 3438 11bc 8902 78bd 9482 7cbd
000001e0: 5daa 903c 4185 36bd 2d13 6abd e36a 6fbd
000001f0: 2cc6 34bd 5bb8 923d c1c1 ff3c 224f b33c
00000200: 0763 6c3d 11dc 183d 5660 0a3c f458 833d
00000210: 0da3 fa3c 60c9 1a3d e2d1 243d 58ba 29bd
00000220: e965 8abd bdc0 7a3d abe5 873d 7351 23bd
00000230: 50c0 17bd 0267 303d fbba 8a3b 349f 6a3c
00000240: 6cbc 0dbc aab7 4d3d f310 a7bc ad8f 083d
00000250: 1eac 733d 3c53 043a ef08 883d 70d5 493c
00000260: 46ee 55bc c22a 483d 96a2 3c3d df9a d23c
00000270: d2da 96bc 8edc d6bb 4092 303c 21ab 1b3c
00000280: 300a 0ebd f51d 76bd 7192 52bd f7dc 153d
00000290: 5d85 09bd f096 1bbd 43bc 933d 4a54 0a3d
000002a0: a4ff e03c f601 c8bb 61ef 433c cb43 0cbd
000002b0: afdb c5bc a371 983c 2a4d 85bd 6c78 7ebd
000002c0: 872e 263d 90a7 dd3c c670 3bbd 703a 083c
000002d0: 7f68 d03b 1953 a2bc c670 e4bc e6ca 24ba
000002e0: c2ea 23bd c05e 82bc 1fad 173c 6c8d 433d
000002f0: 8c34 41bc 1382 5c3d 4731 043d 3bfc 1d3d
00000300: 33bf 5f3d dcd8 e03b cb0a 70bd b299 2a3d
00000310: 27eb bdbc 264a 76bd 616f 6b3d 287d 303d
00000320: 0ac4 303c 6047 223d a2d8 15bd 4689 6d3d
00000330: ef33 49bd b0f0 1c3d 154f 513d d7a3 863d
00000340: cb6d cebc 1fd8 893d ceaa 1ebd 9f6e 24bd
00000350: 7b79 f23c 3252 6fbc 519f f2bb 2c13 163c
00000360: 8bef 8bbd 5965 873c e6cd 79bd e85e a33c
00000370: 672c 8abd 643c 45bd 7d6d 3dbd dabf 733d
00000380: 90c4 343d 7b3d 0f3d 06e0 66bd c120 86bd
00000390: 26f5 da3c 8f3b 8d3d 6954 ebbc cbe8 eabc
000003a0: abd0 7b3d 2a51 473d e27c e13c e565 173d
000003b0: 16d3 84bd 94d4 843d 7b2b 46bb b26c 02bd
000003c0: d68c 6b3d 20e1 c53c 8e35 683d 9a55 113c
000003d0: 1fef 04bc 3932 7cbd 61f4 60bd eee8 85bb
000003e0: d2af 17ba 1cd5 153d 7515 41bd 1f53 05bc
000003f0: d445 4e3d 574f 603b 5093 de3c bc69 97bc

encoder.6.bias f4 [128]
-0.06336191 0.059028957 -0.034876805 -0.064241536 0.027354943 0.02357945 0.013671032 0.0655571
-0.0075743566 -0.039445687 -0.036408704 -0.051381655 0.029913168 -0.021009022 -0.06555875 0.014037667
0.035439704 0.0337262 -0.05146178 -0.01927348 0.006745627 0.007342495 0.04536115 0.066185676
-0.05151266 0.047715046 -0.06529058 -0.006665641 0.045094237 -0.03224569 0.06070804 -0.05266661
-0.0053835483 -0.05156845 0.0137009155 0.008507395 -0.072334416 0.061645776 -0.07233786 -0.028714018
-0.04627046 -0.0048196833 0.05114418 0.0107694855 0.05019803 -0.020967927 -0.032444526 -0.016840972
-0.06581544 -0.02189212 0.061390795 -0.05860657 -0.05201281 -0.047879152 -0.054749295 -0.001902912
0.020636568 -0.06398146 -0.047566786 0.032337192 0.017698485 -0.07202189 -0.06607644 -0.070250474
-0.038824033 -0.012530754 0.009412477 0.061785657 0.032385867 0.046501763 -0.006349001 0.00040929054
-0.026239013 -0.012850905 -0.02471409 0.04516324 0.008232907 0.037020095 -0.013148321 -0.05032401
0.04835379 -0.023265708 0.06113523 0.007875257 0.007739006 -0.008705246 -0.06993969 0.02975527
-0.036762536 -0.047381725 -0.042909704 -0.049803495 0.05726095 0.052894276 0.0058740415 0.0025478015
0.002342199 -0.016758006 0.03700686 -0.02028211 0.037508346 0.041805618 0.03521913 0.07193942
0.028585797 -0.0059422846 0.04139547 -0.06519033 -0.057001017 0.06631333 0.064656936 -0.0034022923
-0.037398007 0.061025493 0.026641754 -0.055696517 -0.03582257 -0.03372284 -0.035567597 -0.0272055
-0.041822236 -0.057815198 -0.015604753 0.054364227 0.025665848 -0.062278353 -0.036239598 0.044746645
00000000: e4c3 81bd 59c8 713d fbda 0ebd 1191 83bd
00000010: 7917 e03c b129 c13c 77fc 5f3c cd42 863d
00000020: 4f32 f8bb cd91 21bd 4b21 15bd 9275 52bd
00000030: 760c f53c 1d1b acbc aa43 86bd 3efe 653c
00000040: 3929 113d 7c24 0a3d 96c9 52bd 6be3 9dbc
00000050: 6c0a dd3b 5099 f03b 9dcc 393d 5b8c 873d
00000060: f0fe 52bd da70 433d 11b7 85bd 736b dabb
00000070: bcb4 383d 0e14 04bd fea8 783d f1b8 57bd
00000080: 7a68 b0bb 7039 53bd ce79 603c 9a62 0b3c
00000090: 1124 94bd 4880 7c3d df25 94bd a939 ebbc
000000a0: 1886 3dbd 6fee 9dbb 8f7c 513d 7f72 303c
000000b0: 739c 4d3d eec4 abbc 8de4 04bd 14f6 89bc
000000c0: 3fca 86bd 1a57 b3bc ea74 7b3d 710d 70bd
000000d0: 620b 55bd ee1c 44bd cc40 60bd 226b f9ba
000000e0: 050e a93c b608 83bd 64d5 42bd 0174 043d
000000f0: 6afc 903c 3680 93bd 1653 87bd 7bdf 8fbd
00000100: f305 1fbd cb4d 4dbc ca36 1a3c f512 7d3d
00000110: 0ba7 043d a278 3e3d 480b d0bb 0c96 d639
00000120: 33f3 d6bc 9a8c 52bc 3475 cabc 17fd 383d
00000130: 51e3 063c 62a2 173d 0e6c 57bc 8d20 4ebd
00000140: a00e 463d ba97 bebc ef68 7a3d 3907 013c
00000150: 7d97 fd3b 73a0 0ebc 8a3c 8fbd 53c1 f33c
00000160: 5094 16bd 5713 42bd 16c2 2fbd c0fe 4bbd
00000170: 758a 6a3d aba7 583d 087b c03b 04f9 263b
00000180: 947f 193b 1648 89bc 8194 173d ab26 a6bc
00000190: 5aa2 193d 5e3c 2b3d ef41 103d fa54 933d
000001a0: c32c ea3c 7fb7 c2bb 4c8e 293d 8282 85bd
000001b0: e679 69bd 48cf 873d db6a 843d fef8 5ebb
000001c0: a72e 19bd def5 793d cf3f da3c 0822 64bd
000001d0: b0ba 12bd f620 0abd 54af 11bd 12de debc
000001e0: cb4d 2bbd a1cf 6cbd 14ab 7fbc 06ad 5e3d
000001f0: 2f41 d23c 9617 7fbd f96f 14bd 4248 373d

encoder.8.weight f4 [128]
1.0009999 0.999 1.001 0.999 1.0009999 0.999 1.001 0.999
0.999 1.0009977 0.999 0.999 0.999 0.999 0.999 1.001
1.0009998 0.999 0.999 0.999 1.001 1.0009999 0.999 1.0009999
1.001 0.999 0.999 0.999 1.001 1.001 0.999 1.0009999
0.999 1.001 0.999 1.001 0.999 1.001 1.0009999 1.001
1.0009999 0.999 1.0009999 1.0009999 0.999 0.999 0.999 0.999
1.0009999 0.999 1.001 1.0009999 0.999 1.001 0.999 0.999
1.0009999 0.999 0.9990001 1.001 1.001 1.001 0.999 0.999
1.0009999 1.0009999 0.999 1.0009999 0.9990001 1.0009999 1.0009999 0.999
0.999 1.001 0.999 1.0009999 0.999 1.001 1.001 0.9990001
0.999 1.001 0.999 0.9990002 1.0009999 1.001 0.999 1.001
1.001 0.999 0.999 0.999 1.0009999 0.9990001 1.001 1.0009999
1.0009999 1.001 1.0009999 1.0009999 0.9990001 0.999 1.001 0.99900013
0.999 0.999 0.999 0.999 1.001 0.999 1.0009998 1.001
1.001 0.999 1.0009999 0.9990001 1.0009996 0.999 1.0009999 1.0009999
1.0009999 0.999 0.999 0.999 1.0009999 0.9990001 1.001 1.0009999
00000000: c420 803f 77be 7f3f c520 803f 77be 7f3f
00000010: c420 803f 77be 7f3f c520 803f 77be 7f3f
00000020: 77be 7f3f b120 803f 77be 7f3f 77be 7f3f
00000030: 77be 7f3f 77be 7f3f 77be 7f3f c520 803f
00000040: c320 803f 77be 7f3f 77be 7f3f 77be 7f3f
00000050: c520 803f c420 803f 77be 7f3f c420 803f
00000060: c520 803f 77be 7f3f 77be 7f3f 77be 7f3f
00000070: c520 803f c520 803f 77be 7f3f c420 803f
00000080: 77be 7f3f c520 803f 77be 7f3f c520 803f
00000090: 77be 7f3f c520 803f c420 803f c520 803f
000000a0: c420 803f 77be 7f3f c420 803f c420 803f
000000b0: 77be 7f3f 77be 7f3f 77be 7f3f 77be 7f3f
000000c0: c420 803f 77be 7f3f c520 803f c420 803f
000000d0: 77be 7f3f c520 803f 77be 7f3f 77be 7f3f
000000e0: c420 803f 77be 7f3f 78be 7f3f c520 803f
000000f0: c520 803f c520 803f 77be 7f3f 77be 7f3f
00000100: c420 803f c420 803f 77be 7f3f c420 803f
00000110: 78be 7f3f c420 803f c420 803f 77be 7f3f
00000120: 77be 7f3f c520 803f 77be 7f3f c420 803f
00000130: 77be 7f3f c520 803f c520 803f 78be 7f3f
00000140: 77be 7f3f c520 803f 77be 7f3f 7abe 7f3f
00000150: c420 803f c520 803f 77be 7f3f c520 803f
00000160: c520 803f 77be 7f3f 77be 7f3f 77be 7f3f
00000170: c420 803f 78be 7f3f c520 803f c420 803f
00000180: c420 803f c520 803f c420 803f c420 803f
00000190: 78be 7f3f 77be 7f3f c520 803f 79be 7f3f
000001a0: 77be 7f3f 77be 7f3f 77be 7f3f 77be 7f3f
000001b0: c520 803f 77be 7f3f c320 803f c520 803f
000001c0: c520 803f 77be 7f3f c420 803f 78be 7f3f
000001d0: c120 803f 77be 7f3f c420 803f c420 803f
000001e0: c420 803f 77be 7f3f 77be 7f3f 77be 7f3f
000001f0: c420 803f 78be 7f3f c520 803f c420 803f

encoder.8.bias f4 [128]
-0.0009999209 -0.0009999882 0.0009999884 -0.0009999734 -0.0009999438 -0.0009999909 0.0009999941 -0.0009999466
-0.0009999928 -0.0009999773 0.0009999912 -0.0009999956 -0.0009999834 0.0009999924 -0.0009999933 0.0009999861
-0.0009999875 -0.0009999963 0.0009999566 0.0009999167 0.0009999878 -0.0009999911 0.0009999955 -0.0009999896
0.0009999941 -0.0009999899 0.0009999841 0.000999966 -0.0009999819 0.0009999789 0.0009997919 -0.0009999896
0.0009999938 -0.0009999842 -0.000999981 0.0009999955 0.0009999933 0.0009999854 0.0009999915 0.0009999318
-0.0009999827 0.0009999863 -0.0009999863 -0.0009999536 -0.000999978 -0.0009999964 0.0009999932 0.00099998
0.0009999909 -0.0009999843 -0.0009999821 0.0009999877 0.0009999921 -0.0009999888 0.0009999726 0.0009999874
-0.0009999928 0.0009999765 -0.0009999918 0.0009999905 -0.0009999645 -0.0009999822 0.0009999942 -0.0009999946
0.0009999932 0.0009999895 0.0009999891 0.0009999834 0.0009999892 -0.000999977 0.0009999837 -0.000999991
-0.0009999956 -0.0009999864 -0.0009999075 -0.0009999938 0.000999991 0.0009999961 0.0009999701 0.000999987
0.0009999919 -0.0009999514 0.0009999209 -0.0009998968 -0.0009999919 -0.0009999962 -0.0009999921 0.0009999883
-0.0009999748 0.0009999819 0.0009999954 0.0009999754 -0.0009999535 -0.0009999672 0.0009999943 0.0009999863
0.0009999959 -0.0009999777 -0.0009999832 -0.0009999827 -0.0009999605 -0.0009999705 0.0009999892 0.0009999869
0.0009999668 0.0009999871 0.0009999877 0.0009999938 -0.0009999927 -0.0009999841 -0.0009999686 0.0009999641
-0.0009999892 -0.0009999049 -0.0009999956 -0.0009999841 0.000999978 -0.0009999875 -0.0009999875 0.0009999949
0.0009999857 -0.0009999898 0.0009999786 -0.0009998644 0.0009997841 -0.0009999592 -0.0009999875 0.0009999563
00000000: c70f 83ba 0912 83ba 0b12 833a 8a11 83ba
00000010: 8c10 83ba 2012 83ba 3c12 833a a410 83ba
00000020: 3112 83ba ac11 83ba 2312 833a 4912 83ba
00000030: e011 83ba 2d12 833a 3512 83ba f711 833a
00000040: 0312 83ba 4f12 83ba fa10 833a a30f 833a
00000050: 0612 833a 2212 83ba 4812 833a 1512 83ba
00000060: 3c12 833a 1812 83ba e611 833a 4b11 833a
00000070: d311 83ba b911 833a 730b 833a 1512 83ba
00000080: 3912 833a e711 83ba cb11 83ba 4812 833a
00000090: 3512 833a f111 833a 2612 833a 2510 833a
000000a0: da11 83ba f911 833a f911 83ba e010 83ba
000000b0: b211 83ba 5012 83ba 3412 833a c311 833a
000000c0: 2012 833a e811 83ba d511 83ba 0512 833a
000000d0: 2b12 833a 0e12 83ba 8311 833a 0212 833a
000000e0: 3112 83ba a511 833a 2812 83ba 1d12 833a
000000f0: 3e11 83ba d611 83ba 3d12 833a 4012 83ba
00000100: 3412 833a 1412 833a 1112 833a e011 833a
00000110: 1212 833a a911 83ba e311 833a 2112 83ba
00000120: 4912 83ba fa11 83ba 540f 83ba 3912 83ba
00000130: 2112 833a 4d12 833a 6e11 833a ff11 833a
00000140: 2912 833a cd10 83ba c70f 833a f80e 83ba
00000150: 2912 83ba 4e12 83ba 2b12 83ba 0a12 833a
00000160: 9611 83ba d311 833a 4712 833a 9b11 833a
00000170: df10 83ba 5511 83ba 3e12 833a f911 833a
00000180: 4b12 833a af11 83ba de11 83ba da11 83ba
00000190: 1b11 83ba 7111 83ba 1212 833a fe11 833a
000001a0: 5111 833a 0012 833a 0512 833a 3912 833a
000001b0: 3012 83ba e611 83ba 6111 83ba 3a11 833a
000001c0: 1212 83ba 3e0f 83ba 4912 83ba e611 83ba
000001d0: b211 833a 0312 83ba 0312 83ba 4312 833a
000001e0: f411 833a 1712 83ba b711 833a e20d 83ba
000001f0: 300b 833a 1011 83ba 0312 83ba f710 833a

encoder.8.running_mean f4 [128]
0.018867066 0.033373997 0.022689864 0.016445315 0.024228303 0.020326523 0.025503824 0.025447398
0.025472302 0.024708962 0.021772241 0.017240798 0.028320123 0.025833396 0.020199075 0.02166794
0.021708582 0.028449675 0.020708328 0.023985103 0.019696662 0.031657007 0.02715969 0.029074732
0.02180113 0.028549468 0.022210836 0.025143636 0.02559708 0.019126391 0.023807587 0.019457735
0.019845529 0.014285758 0.023126675 0.01813501 0.020069068 0.023660328 0.016586963 0.024699917
0.019455856 0.018330203 0.021655677 0.021995034 0.023666525 0.021813834 0.019106345 0.018483497
0.017399644 0.02393763 0.025555203 0.018550036 0.02567429 0.019177234 0.02145639 0.024166876
0.024259266 0.018133802 0.015048248 0.026396388 0.024663633 0.016120953 0.019401148 0.025340697
0.023484906 0.021395642 0.023101445 0.026003316 0.019554604 0.025462393 0.02650081 0.02325233
0.020340856 0.018918825 0.016037503 0.027203819 0.019801963 0.028704738 0.01945615 0.020952813
0.02214971 0.01947509 0.024891531 0.02433302 0.019068865 0.029560698 0.019318564 0.024764402
0.020212397 0.016491277 0.013883898 0.017647492 0.01871862 0.024054667 0.026475538 0.021567442
0.02150017 0.018575175 0.0226247 0.024332456 0.021569615 0.02679438 0.027192025 0.02628975
0.023716377 0.023411615 0.02827077 0.0165059 0.018605499 0.027298216 0.027750058 0.02301942
0.020043653 0.022048812 0.019183336 0.028869903 0.019093225 0.020717815 0.014826302 0.022404531
0.018121218 0.01745424 0.01788962 0.021704687 0.027551522 0.024377286 0.01666222 0.02342373
00000000: 1b8f 9a3c 2cb3 083d 18e0 b93c 53b8 863c
00000010: 6f7a c63c cf83 a63c 65ed d03c 1077 d03c
00000020: 4aab d03c 736a ca3c b35b b23c 933c 8d3c
00000030: 9aff e73c 8fa0 d33c 8878 a53c f780 b13c
00000040: 32d6 b13c 4b0f e93c 83a4 a93c 687c c43c
00000050: e55a a13c c7aa 013d 007e de3c 222e ee3c
00000060: 4998 b23c 93e0 e93c 80f3 b53c 07fa cd3c
00000070: f8b0 d13c f3ae 9c3c 2108 c33c d465 9f3c
00000080: 1793 a23c d00e 6a3c 2774 bd3c df8f 943c
00000090: e367 a43c 4ed3 c13c 62e1 873c 7b57 ca3c
000000a0: e361 9f3c 3929 963c 3f67 b13c ee2e b43c
000000b0: 4de0 c13c edb2 b23c e984 9c3c b46a 973c
000000c0: b389 8e3c d918 c43c 2559 d13c 3ff6 973c
000000d0: e352 d23c 9319 9d3c 50c5 af3c 9df9 c53c
000000e0: 5ebb c63c 578d 943c ed8c 763c 3d3d d83c
000000f0: 630b ca3c 1710 843c 28ef 9e3c 4b97 cf3c
00000100: 6b63 c03c ea45 af3c 3e3f bd3c e804 d53c
00000110: fa30 a03c 8296 d03c 3a18 d93c ac7b be3c
00000120: dea1 a63c a7fb 9a3c 1561 833c 8bda de3c
00000130: ba37 a23c 3326 eb3c 8162 9f3c 3ca5 ab3c
00000140: 4f73 b53c 398a 9f3c 53e9 cb3c 0b56 c73c
00000150: 4f36 9c3c 4729 f23c f741 9e3c b7de ca3c
00000160: 7894 a53c b718 873c 4a79 633c 7991 903c
00000170: cb57 993c 4b0e c53c 3ae3 d83c 34ae b03c
00000180: 2021 b03c f72a 983c 6f57 b93c dc54 c73c
00000190: c3b2 b03c e37f db3c cfc1 de3c 9a5d d73c
000001a0: d948 c23c b7c9 bf3c 1a98 e73c 6237 873c
000001b0: 8f6a 983c 82a0 df3c 1754 e33c 3993 bc3c
000001c0: 9632 a43c b69f b43c 5f26 9d3c 9380 ec3c
000001d0: 6569 9c3c 68b8 a93c 05ea 723c b589 b73c
000001e0: f372 943c 32fc 8e3c 418d 923c 07ce b13c
000001f0: bbb3 e13c e0b2 c73c 357f 883c 1fe3 bf3c

encoder.8.running_var f4 [128]
0.91007084 0.92176586 0.9144241 0.9076253 0.9105339 0.910961 0.91596836 0.91036433
0.9131568 0.91576767 0.9123902 0.90799075 0.9146463 0.91280466 0.90977114 0.90757644
0.9095909 0.91749674 0.9080063 0.9120513 0.9073698 0.92536694 0.91268957 0.9311381
0.9107429 0.9210561 0.9137907 0.9135685 0.9092495 0.9086209 0.91402024 0.9099717
0.9093757 0.90683705 0.909048 0.9059231 0.90972215 0.90969807 0.9111846 0.9115757
0.9095908 0.9061989 0.90966165 0.9111235 0.91355705 0.91159546 0.90973777 0.90771216
0.90795696 0.9107696 0.914505 0.9088852 0.91621816 0.90878004 0.91004854 0.91232055
0.91002077 0.9083715 0.9054157 0.9122334 0.9138487 0.90633523 0.9088059 0.9193342
0.9117151 0.9106249 0.9124186 0.91359556 0.9084271 0.9113824 0.91437155 0.91081446
0.9082746 0.91031927 0.9066222 0.9110997 0.9067492 0.91544926 0.9098494 0.9078314
0.9085338 0.90967387 0.9103562 0.9116717 0.9072405 0.9172273 0.9102264 0.9144643
0.91051537 0.9107434 0.9056382 0.9077055 0.9075671 0.9096328 0.91475797 0.9077
0.91467327 0.9082867 0.9143835 0.91451824 0.9099971 0.9187655 0.9174127 0.91230077
0.9129066 0.9155901 0.9131392 0.9087241 0.90991217 0.9126948 0.91843694 0.9127029
0.90887773 0.9073137 0.90803075 0.9206543 0.90710366 0.91040283 0.90676427 0.91187966
0.90741146 0.91010994 0.90806985 0.9087725 0.9143117 0.9125307 0.90744895 0.9121628
00000000: 67fa 683f d9f8 6b3f b317 6a3f 225a 683f
00000010: c018 693f bd34 693f e77c 6a3f a30d 693f
00000020: a5c4 693f c06f 6a3f 6792 693f 1572 683f
00000030: 4326 6a3f 91ad 693f c3e6 683f ee56 683f
00000040: f3da 683f 11e1 6a3f 1a73 683f 327c 693f
00000050: 6349 683f d9e4 6c3f 06a6 693f 115f 6e3f
00000060: 7226 693f 55ca 6b3f 30ee 693f a0df 693f
00000070: 93c4 683f 619b 683f 3bfd 693f e8f3 683f
00000080: d9cc 683f 7926 683f 5fb7 683f 94ea 673f
00000090: 8de3 683f f9e1 683f 6543 693f 065d 693f
000000a0: f1da 683f a7fc 673f 96df 683f 643f 693f
000000b0: e0de 693f 525e 693f 93e4 683f d35f 683f
000000c0: de6f 683f 3228 693f 001d 6a3f b3ac 683f
000000d0: 468d 6a3f cfa5 683f f1f8 683f d78d 693f
000000e0: 1ff7 683f 098b 683f 53c9 673f 2188 693f
000000f0: fdf1 693f 9605 683f 81a7 683f 7c59 6b3f
00000100: 2966 693f b71e 693f 4494 693f 66e1 693f
00000110: ae8e 683f 5b50 693f 4114 6a3f 232b 693f
00000120: af84 683f af0a 693f 6418 683f d43d 693f
00000130: b720 683f e25a 6a3f e4eb 683f a367 683f
00000140: ac95 683f 63e0 683f 1b0d 693f 5163 693f
00000150: ea40 683f 69cf 6a3f 9904 693f 551a 6a3f
00000160: 8917 693f 7b26 693f e8d7 673f 635f 683f
00000170: 5156 683f b2dd 683f 942d 6a3f 075f 683f
00000180: 0728 6a3f 7a85 683f 0915 6a3f de1d 6a3f
00000190: 92f5 683f 3734 6b3f 8fdb 6a3f 8b8c 693f
000001a0: 3fb4 693f 1d64 6a3f 7ec3 693f 25a2 683f
000001b0: 01f0 683f 5ea6 693f af1e 6b3f e6a6 693f
000001c0: 36ac 683f b645 683f b474 683f 00b0 6b3f
000001d0: f237 683f 2910 693f b421 683f f270 693f
000001e0: 1e4c 683f f7fc 683f 4477 683f 51a5 683f
000001f0: 5510 6a3f 9d9b 693f 934e 683f 8083 693f

decoder.0.weight f4 [128, 64, 3]
0.026102401 0.039035067 0.045121606 -0.046036128 -0.019815492 -0.055678867 -0.004201039 0.06815129
-0.06721441 0.017806625 0.03503947 0.057509117 -0.05156784 0.0664124 0.061265193 0.065654345
-0.04156839 0.063680455 -0.061386276 -0.027278483 0.033051953 0.053165603 0.056668047 0.038434897
-0.01213009 -0.063001156 -0.00637266 0.030392744 0.031943686 -0.030219166 -0.036382113 -0.063429765
0.0052656997 0.010977755 -0.0360487 -0.048348613 -0.04636953 0.05791187 0.042496763 -0.013427712
0.056636 -0.02481105 -0.030723885 -0.028944453 0.04974887 -0.028890442 0.052661862 -0.024183756
0.02570159 -0.039043598 0.060329176 -0.00043462368 0.021596149 0.035939533 0.046336398 -0.014211558
-0.00808547 0.042076252 0.054459058 0.066846654 -0.06501496 -0.037350837 0.0426804 0.009666307
-0.03150293 0.05825724 0.025172627 -0.068139695 -0.050149225 -0.01776023 -0.0077988873 -0.06830159
-0.060358103 -0.06974756 -0.018116226 -0.01867984 0.04610948 0.05146129 -0.0054666493 -0.05979869
-0.055800464 0.022524508 -0.020014847 0.0132453935 0.038206927 -0.021012725 -0.06109363 0.057233825
0.00802739 -0.007123064 0.07169965 0.009329279 0.00743261 -0.02111104 -0.019052485 -0.002836339
-0.06503776 -0.011847623 0.06189432 -0.04506153 0.031528972 -0.014243482 0.060410358 0.029440667
0.050902113 0.0077591054 -0.045768663 -0.06375985 0.021427698 -0.017302135 0.012390224 -0.029569512
-0.044823218 0.016282402 0.0015447263 0.053806223 0.045773227 0.011497283 0.060928755 0.064228244
-0.016347775 0.070122294 -0.011778822 -0.02255797 -0.045870915 0.06528242 -0.06465956 0.03352235
0.047668036 -0.020588307 0.02468658 0.038564466 0.040492065 0.053058323 0.0328265 0.04034178
-0.01454333 0.0005837191 -0.031634144 -0.03794753 -0.06760551 -0.050301682 0.058683448 0.015175008
0.040294297 0.018809868 -0.016862884 0.05489364 -0.020991324 -0.06704535 -0.010951224 -0.028083296
-0.05507902 -0.03709364 0.061276514 -0.06954085 0.06454011 -0.060682755 -0.0488542 0.063056946
-0.07008036 -0.032877777 -0.06793439 0.014412677 0.05553899 0.060216125 0.07218824 0.033897545
-0.032473605 0.011465232 0.030329501 -0.007842219 -0.005818852 -0.06269315 0.004029664 -0.036332324
0.045120414 -0.02591246 0.069393 -0.0067062797 -0.06699975 0.048183575 0.013022369 -0.031775303
-0.0688759 -0.04775934 0.061535098 0.042921014 0.048296645 -0.049950913 0.013167738 0.012516079
0.025602018 0.05339301 -0.0041508824 0.03602763 0.05651188 -0.06148989 -0.01455783 0.023362476
0.046455946 -0.039509937 0.063145705 -0.01703636 0.041956574 -0.066858746 0.050312687 0.05504028
-0.049502216 -0.05087084 0.048172392 -0.02684444 -0.0013013384 0.04779242 0.04917246 0.06386503
-0.047024626 0.04921854 -0.041986547 -0.007373332 -0.05769784 0.0033709446 0.014843399 0.0074055656
0.0498504 -0.056533854 0.028131815 -0.021921793 -0.061073776 0.066024534 -0.03339573 0.0052132127
-0.04199132 -0.01409791 0.0035823914 0.01864351 -0.013374952 0.013251347 0.05316167 0.051822294
-0.0016789839 -0.010623577 0.055803504 0.0034497827 -0.028598374 -0.0009909812 0.0516306 -0.04948669
0.024214746 -0.03702954 0.061072815 0.07007453 -0.0706575 -0.03993183 -0.055038366 -0.044639993
00000000: b4d4 d53c 3ce3 1f3d 6fd1 383d 6190 3cbd
00000010: 1954 a2bc 860f 64bd dfa8 89bb e792 8b3d
00000020: b5a7 89bd 33df 913c 8c85 0f3d ae8e 6b3d
00000030: cd38 53bd 3903 883d 36f1 7a3d c975 863d
00000040: 9e43 2abd e66a 823d 2d70 7bbd 2077 dfbc
00000050: 7c61 073d 2dc4 593d c11c 683d e96d 1d3d
00000060: 49bd 46bc c006 81bd bfd1 d0bb 34fa f83c
00000070: 62d7 023d 2f8e f7bc 6905 15bd 77e7 81bd
00000080: e48b ac3b 0bdc 333c cda7 13bd 3209 46bd
00000090: faed 3dbd ff34 6d3d 1611 2e3d e8ff 5bbc
000000a0: 26fb 673d 8b40 cbbc a8b0 fbbc eb1c edbc
000000b0: 79c5 4b3d a6ab ecbc f7b3 573d 031d c6bc
000000c0: 248c d23c 2eec 1fbd ba1b 773d 34de e3b9
000000d0: 68ea b03c 5535 133d 3ccb 3d3d 98d7 68bc
000000e0: eb78 04bc 2658 2c3d 7610 5f3d e6e6 883d
000000f0: 9026 85bd 31fd 18bd a5d1 2e3d 6e5f 1e3c
00000100: 3709 01bd 259f 6e3d d336 ce3c d38c 8bbd
00000110: 4669 4dbd e77d 91bc cf8d ffbb b4e1 8bbd
00000120: 0f3a 77bd cfd7 8ebd 7b68 94bc 7706 99bc
00000130: 4bdd 3c3d 13c9 523d 9421 b3bb 79ef 74bd
00000140: 078f 64bd 5185 b83c 2df6 a3bc 3503 593c
00000150: de7e 1c3d e122 acbc 503d 7abd 046e 6a3d
00000160: 5085 033c 9768 e9bb 44d7 923d d5d9 183c
00000170: 408d f33b 0ff1 acbc f513 9cbc dfe1 39bb
00000180: 8432 85bd 881c 42bc e684 7d3d 7092 38bd
00000190: 8624 013d 7e5d 69bc da70 773d 8e2d f13c
000001a0: bc7e 503d 1840 fe3b ec77 3bbd 8694 82bd
000001b0: 2489 af3c 35bd 8dbc 5e00 4b3c c33b f2bc
000001c0: 8d98 37bd ac62 853c 6a78 ca3a ea63 5c3d
000001d0: b57c 3b3d 1a5f 3c3c 6e90 793d 198a 833d
000001e0: c5eb 85bc 479c 8f3d f6fb 40bc 7ecb b8bc
000001f0: 24e3 3bbd cab2 853d 3b6c 84bd bb4e 093d
00000200: 8f3f 433d cfa8 a8bc 833b ca3c c6f5 1d3d
00000210: 02db 253d af53 593d 1475 063d 6c3d 253d
00000220: 2647 6ebc ba04 193a ce92 01bd df6e 1bbd
00000230: c274 8abd 2309 4ebd 0e5e 703d 99a0 783c
00000240: a20b 253d 2717 9a3c 0824 8abc 27d8 603d
00000250: fff5 abbc 134f 89bd c36c 33bc f10e e6bc
00000260: 8a9a 61bd 80ef 17bd 15fd 7a3d 6f6b 8ebd
00000270: 9b2d 843d 7b8e 78bd 571b 48bd 0024 813d
00000280: 4b86 8fbd d9aa 06bd 2f21 8bbd 2623 6c3c
00000290: da7c 633d 2fa5 763d 6ed7 933d 27d8 0a3d
000002a0: 0b03 05bd abd8 3b3c 9375 f83c a77c 00bc
000002b0: 12ac bebb 4465 80bd 460b 843b 34d1 14bd
000002c0: 2fd0 383d 5e46 d4bc eb1d 8e3d 5ac0 dbbb
000002d0: 2a37 89bd 245c 453d c65b 553c d226 02bd
000002e0: cf0e 8dbd 4c9f 43bd 3a0c 7c3d f2cd 2f3d
000002f0: b4d2 453d 5499 4cbd 7fbd 573c 3d10 4d3c
00000300: 53bb d13c a1b2 5a3d 2004 88bb b591 133d
00000310: 0079 673d d3dc 7bbd f783 6ebc aa62 bf3c
00000320: 9748 3e3d 2cd5 21bd 8952 813d d68f 8bbc
00000330: a8da 2b3d 3ded 88bd ad14 4e3d eb71 613d
00000340: d6c2 4abd f15d 50bd 6a50 453d dfe8 dbbc
00000350: ac91 aaba fcc1 433d 1069 493d abcb 823d
00000360: e59c 40bd 6199 493d 16fa 2bbd fe9b f1bb
00000370: 9254 6cbd 11eb 5c3b ba31 733c 63aa f23b
00000380: ef2f 4c3d 0b90 67bd b174 e63c 5595 b3bc
00000390: 7f28 7abd df37 873d f6c9 08bd 99d3 aa3b
000003a0: 17ff 2bbd ecfa 66bc 8ec6 6a3b 46ba 983c
000003b0: 9d22 5bbc 2d1c 593c 0dc0 593d 9d43 543d
000003c0: 5a11 dcba 830e 2ebc 3792 643d c015 623b
000003d0: 2347 eabc d0e3 81ba 9c7a 533d 8eb2 4abd
000003e0: 015e c63c 49ac 17bd 7d27 7a3d 3c83 8f3d
000003f0: e1b4 90bd 8f8f 23bd e96f 61bd 6dd8 36bd

decoder.0.bias f4 [64]
-0.01913796 -0.05485601 -0.0025552246 0.023492578 0.0067045027 0.042269055 0.012672246 -0.070358634
0.021736033 0.05807058 -0.0035738947 -0.046433173 0.059326585 0.018680077 0.044373084 -0.05894431
-0.070707716 0.04547463 -0.056738175 0.02173391 -0.013736909 0.068092994 0.040935934 -0.031914465
0.01630474 0.06846343 -0.036680114 -0.025674334 0.042777497 0.052495 0.015904574 -0.028050939
0.03267262 0.011484655 -0.044728 -0.042690888 0.062054627 -0.031205628 -0.064577825 -0.061108
-0.022339376 0.0027920783 -0.04004891 -0.066457175 -0.012032816 -0.052742608 -0.01419821 -0.04941124
0.042594783 0.038512327 0.020025684 0.019542865 -0.048552524 -0.031014608 -0.021131365 0.027273394
-0.06524568 -0.0039481265 0.01223115 0.046549104 0.0485133 0.06758151 -0.06580665 -0.030055841
00000000: 36c7 9cbc b2b0 60bd 8e75 27bb 8273 c03c
00000010: 72b1 db3b 5122 2d3d 419f 4f3c 3018 90bd
00000020: c40f b23c 6bdb 6d3d 0138 6abb b630 3ebd
00000030: 6f00 733d f606 993c 8dc0 353d 976f 71bd
00000040: 35cf 90bd 9b43 3a3d 4a66 68bd 500b b23c
00000050: c610 61bc 5774 8b3d 70ac 273d beb8 02bd
00000060: 8591 853c 8e36 8c3d e33d 16bd fb52 d2bc
00000070: 7537 2f3d ff04 573d 4f4a 823c 15cb e5bc
00000080: bad3 053d 222a 3c3c b534 37bd a4dc 2ebd
00000090: fe2c 7e3d f2a2 ffbc 6141 84bd 624c 7abd
000000a0: 1101 b7bc 4dfb 363b 530a 24bd b31a 88bd
000000b0: 4a25 45bc a208 58bd 9c9f 68bc 7163 4abd
000000c0: de77 2e3d 1abf 1d3d e70c a43c 5c18 a03c
000000d0: 03df 46bd 5912 febc af1b adbc 746c df3c
000000e0: 879f 85bd 495f 81bb 2965 483c 46aa 3e3d
000000f0: e2b5 463d 2d68 8a3d a3c5 86bd ab37 f6bc
